models/attacker.pth (torch, 139935 bytes, 4 tensors)

e1.weight f4 [165, 104]
000000 8e a0 1c 3d 19 18 ca bc e5 0b 2e bf 21 7e e0 be
       0.038239054 -0.024669694 -0.679869 -0.4384623
000010 f3 f7 a1 3e 87 b3 0d 3f 31 0d 47 bd c4 86 c5 3e
       0.31634483 0.5535206 -0.048596565 0.3857938
000020 4b 77 11 3f 36 df a7 3e 0f 59 62 be 8a 50 70 3e
       0.5682265 0.32787484 -0.22104286 0.23468223
000030 21 c6 c2 3e 72 df ca 3e 6a fc a6 bd 2f fc f1 bb
       0.38041785 0.396236 -0.08153613 -0.007384799
000040 2f 41 3c 3e 35 c4 41 3d 53 a0 9a bd c1 5e 08 bd
       0.1838424 0.04730626 -0.07550111 -0.03329349
000050 ae 32 50 3e 7d eb 0e 3e ed 1e 52 3e dd 6b a6 3d
       0.20331833 0.13957019 0.2051961 0.08126042
000060 dc 59 15 3d d2 2f 91 bd 7e c0 5d 3e 36 2e f9 3d
       0.03646265 -0.07089199 0.21655461 0.12167017
000070 72 6d 09 3d 59 7e 1f bd 04 fa ed bc 1d 85 08 bf
       0.03355164 -0.038938854 -0.02904988 -0.53328115
000080 4d 6e 0b bf 74 08 5a be dd 23 cc 3d 9c 9a 5c bd
       -0.5446518 -0.21292287 0.09967778 -0.053858384
000090 db ab f9 be 5a 89 09 3e 8b f4 d6 3c 1b 1d 15 3f
       -0.48763928 0.13431302 0.026239654 0.58247536
0000a0 51 f8 8f be 66 e8 16 3e 18 44 0d be 6a 39 06 be
       -0.28119138 0.1473709 -0.13795507 -0.13107839
0000b0 4c 73 8f be 02 7a 8e 3d 48 c3 3b bb 68 40 74 bd
       -0.28017652 0.06956865 -0.0028650332 -0.059631735
0000c0 0c e9 9c bd 44 f8 b1 bd 3f 74 84 bd 46 80 b6 3d
       -0.07661638 -0.08689931 -0.06467485 0.08911185
0000d0 ce 72 76 3c f3 0e 36 3d 62 10 93 bd 09 1f 82 bc
       0.01504202 0.04444785 -0.07180859 -0.01588394
0000e0 86 ef 6f 3c fd 0e 01 bd 61 1a 18 3d 20 4f c1 3d
       0.014644509 -0.031508435 0.037134532 0.0943892
0000f0 6c 2d 0d 3f 51 6a 21 3f 2d 70 1f bf eb 39 48 3f
       0.55147433 0.6305285 -0.6228054 0.78213376
000100 c4 77 11 be 05 2f 6f 3d a7 bc 93 bd 28 6d 43 3f
       -0.14205843 0.05839445 -0.07213717 0.76338434
000110 52 7e e1 bd 8f ef e0 bb f1 b1 09 bd 94 f9 b8 3d
       -0.11010422 -0.006864495 -0.033616964 0.09031978
000120 6d ef 0f be cc 74 6f 3e 1e 4a 2a be 9a ff 03 3e
       -0.14056177 0.23384398 -0.16629836 0.12890473
000130 9f 74 42 3d 89 dc 9d bd dd be 67 bc 7e 17 5f 3e
       0.0474745 -0.07708079 -0.014144626 0.21786305
000140 bf d7 3c 3d 37 ec 2e 3d 63 ec f4 3b 6f 1d 4b 3d
       0.04610419 0.04270574 0.0074744686 0.049588617
000150 a9 db 7c 3b 77 eb 0c 3d c3 90 76 3c 1c c8 bb bd
       0.0038583076 0.034404244 0.015049162 -0.09169027
000160 6e 24 87 3d 55 36 b7 bd 12 68 ee 3e c4 32 91 bd
       0.06598745 -0.0894591 0.46563774 -0.07089761
000170 42 4d 2d bd 8f c3 d0 bc 89 f5 b0 bd e6 85 10 be
       -0.042310007 -0.025483875 -0.08640582 -0.14113578
000180 51 07 be bc f8 c0 85 bc 09 70 bc bc cc 73 0f 3d
       -0.023196848 -0.016327366 -0.023002641 0.035022542
000190 38 2a 71 bd 9c e1 95 bc 28 c6 84 3d a5 bf c3 3c
       -0.058878154 -0.018296055 0.06483108 0.023895094
0001a0 06 3f 47 3d 2a b7 18 bd 7d cd 00 bf 7d 57 ef be
       0.04864409 -0.037284054 -0.5031355 -0.46746436
0001b0 a4 bc 62 bf 00 43 a5 3d 1b 88 b8 be 21 9f f5 bd
       -0.8856909 0.0806942 -0.3604134 -0.11993242
0001c0 a7 22 0a bf f7 7f 93 3d 60 31 ac be 55 94 1b be
       -0.53959125 0.07202142 -0.3363142 -0.15193303
0001d0 bd d3 c7 be 5f 41 94 bc a1 0c 82 3d b5 a8 2f bd
       -0.3902873 -0.018097578 0.06350065 -0.0428855
0001e0 4f 9b 30 3e e6 ce 99 bc 34 dd 31 bd e3 9a 80 bd
       0.17246746 -0.018775415 -0.043423846 -0.06279542
0001f0 76 74 31 3e 6d b1 b1 3d 44 47 80 3d 1e 04 3e 3e
       0.17329583 0.086764194 0.06263593 0.18556258
000200 03 f8 bb 3d de 4e 59 3d dd 6c f7 3c fa 66 1d 3e
       0.09178164 0.05305373 0.030203277 0.15371314
000210 f5 28 0c 3e 94 a5 3f 3d 0a ca 3c 3e 23 d8 55 bc
       0.13687499 0.046788767 0.18436447 -0.013052019
000220 b3 2c a5 3e 87 56 02 be 03 f6 89 3e f1 50 f3 3e
       0.32260665 -0.1272832 0.26945505 0.4752269
000230 b3 7b 2f bc 80 ec 0e 3e 08 91 06 be 2d d6 32 3e
       -0.010710645 0.13957405 -0.13141263 0.17464514
000240 04 09 04 bf d7 34 8f 3e 8c d5 17 3f 48 56 f9 3e
       -0.51576257 0.2797 0.5931022 0.4869864
000250 b2 29 b0 3e 73 e5 46 bd 17 6c cb bc f4 62 b2 3d
       0.3440681 -0.048558664 -0.024831815 0.0871028
000260 1d 07 e3 3c d1 86 a9 3d 5c 32 b3 3c 70 67 34 bc
       0.027713353 0.08277667 0.0218746 -0.01101099
000270 a8 07 6d bd d7 b2 b2 3d 0f ee 97 bd 1a d3 a5 bc
       -0.05786863 0.08725517 -0.07418453 -0.020242263
000280 bb 17 96 bd ce b3 8c 3d ef a5 15 3e 7d de b1 bd
       -0.07328745 0.068702325 0.1461408 -0.086850144
000290 ff ba ca bc 72 7f 33 3f a8 0a 40 3e 50 7b ef bd
       -0.02474737 0.7011634 0.18754065 -0.11693442
0002a0 49 07 6c 3d af 76 03 bd 4b 3d 9c 3e 5c 96 ef 3e
       0.057624135 -0.032095607 0.30515513 0.46794403
0002b0 94 fb 17 3d f7 c1 4d 3d 18 bf 6c be 8f 6d b6 3e
       0.037105158 0.050233807 -0.23119771 0.35630462
0002c0 3b 56 1a be f6 e6 ac 3e fb 25 1d be 98 26 21 be
       -0.15071957 0.3376996 -0.1534652 -0.15737379
0002d0 af ee 5c bd 00 dc b8 ba 55 64 8a bd d4 24 3e bd
       -0.053938564 -0.0014103651 -0.06757418 -0.04642184
0002e0 1c 6c ed 3e bf a1 a0 3d 42 cd 04 3d 9e 90 49 bd
       0.46371543 0.078433506 0.03242231 -0.049210183
0002f0 7d a6 2a bd 76 90 77 bd eb b1 1d bd cd 77 9e bd
       -0.04166268 -0.060440503 -0.038499754 -0.07737694
000300 4a da a6 3c 44 0c e2 3e fd c7 a6 3e 2d 6f 9a 3c
       0.02036776 0.44149983 0.32574454 0.01885184
000310 33 7a 33 bd aa 10 8e 3d 2c 38 d5 3c 24 ec 25 3d
       -0.04381771 0.06936772 0.026027761 0.040508404
000320 f2 06 2a bc 43 fe c1 bd 0a 6f be bc 37 1f 40 bd
       -0.010377632 -0.09472325 -0.023246307 -0.04690477
000330 70 73 62 3d fc 28 b3 be 15 3c 81 3c 00 80 19 bd
       0.05528587 -0.34992206 0.01577572 -0.037475586
000340 d4 68 ba bd d0 e1 c3 3e 6f 18 75 3f 8d 58 d2 be
       -0.09102026 0.3825822 0.9574041 -0.41083184
000350 30 11 69 3e 8a 13 28 3f 07 7d 37 bc c0 a8 4b be
       0.22760463 0.65654814 -0.011199242 -0.19888592
000360 43 4a 77 3c 39 7c 90 3c 79 89 be be 72 a9 9f 3e
       0.015093389 0.017637359 -0.37214258 0.31183964
000370 49 d5 b3 be 32 3c cf 3d 5a 17 f3 3e 89 7f 3b bd
       -0.3512366 0.10118903 0.47478753 -0.045775924
000380 f8 1d d7 3d aa 73 4d 3d 88 41 4b 3a e2 3e a3 3d
       0.10503763 0.050159134 0.00077536004 0.07970978
000390 65 aa e7 bd 6c 87 6e 3e 31 ef b8 3e 99 b8 63 3e
       -0.11311797 0.23293847 0.3611999 0.22238387
0003a0 cd c7 68 3d 42 4f 02 3c 82 fa 57 be be 5a 1f be
       0.05683117 0.007953467 -0.21091655 -0.15561959
0003b0 cb 31 1e 3d 27 90 9a bd e1 84 82 3f e8 d8 3f bf
       0.038621705 -0.07547026 1.0196801 -0.7494035
0003c0 d8 d9 5a bd 22 7a 04 be 5f 8d 0b be f1 f0 04 bf
       -0.05343041 -0.12937215 -0.13628148 -0.5193015
0003d0 da 55 6a be 82 c6 ac bd 9f ca 44 be 23 a6 cb 3d
       -0.22884312 -0.084363 -0.19217919 0.099437974
0003e0 0f ec 75 bd b2 67 03 3f 84 aa 99 3e d0 f9 09 3e
       -0.060039576 0.513301 0.30012906 0.13474202
0003f0 89 36 59 3d ca 96 dd 3b c5 53 5e bd 62 00 fd bc
       0.053030524 0.00676236 -0.054279108 -0.030883972

e1.bias f4 [165]
000000 20 2c 16 3d 4c fa 18 3e ef e0 5b 3e af ea e7 3d
       0.036663175 0.1493923 0.21472524 0.11324059
000010 af 85 2a 3e db 91 ba 3d 30 df 64 3e 9f 86 ba 3d
       0.16652559 0.09109851 0.22350764 0.09107708
000020 8d 33 76 3e de 3c 82 3d 00 cd 1d 3e 08 89 8f 3e
       0.24043103 0.06359266 0.15410233 0.28034234
000030 88 25 46 3e 35 ca bb 3d 4e 7e f8 bd d8 28 cb bc
       0.19350255 0.09169427 -0.12133466 -0.02479975
000040 bc 5e 62 3e cb 2a 2f bb f7 6c c5 3c 48 cf 40 3d
       0.22106451 -0.0026728387 0.02409981 0.04707268
000050 fd a2 88 3e 89 8f 09 3e 71 e9 f3 3d 93 82 c5 3d
       0.2668685 0.1343366 0.1190976 0.09644046
000060 91 24 a2 3e f7 5d 8d bd 6f e4 c4 3d 8a 1b 89 3e
       0.31668523 -0.06902688 0.09613883 0.26778823
000070 b4 43 0d 3c 99 11 7d 3d 50 07 b6 3e 6e 2b 37 3e
       0.008622099 0.06178436 0.35552454 0.17887661
000080 4d d6 b6 3e e8 c6 b7 3e b7 70 92 3e 43 81 52 3d
       0.35710374 0.3589394 0.2860162 0.051392805
000090 e8 42 82 3d 32 d9 bb bc f1 8e 7d 3e 7b 52 34 3e
       0.063604176 -0.022930715 0.24761559 0.17609589
0000a0 ea 39 ee 3d c8 01 06 3e 82 22 72 3e d1 73 33 be
       0.1163214 0.13086617 0.23645976 -0.17524649
0000b0 d9 21 f8 3d 4d b3 69 3e ae 3f 0b 3d ae cd 8c 3e
       0.12115831 0.22822304 0.033996277 0.2750067
0000c0 db ee 94 3e 33 fa cb bb 66 3c 73 3e 6c bb 21 3d
       0.29088482 -0.0062248944 0.23753509 0.03948538
0000d0 c2 15 ce 3d 7f 61 95 3e 72 2d ad 3e 7b c3 15 3e
       0.10062744 0.29175946 0.33823735 0.14625351
0000e0 44 97 20 3c 1a 0e 17 bd 0e df 89 3d fe aa 44 3e
       0.00980169 -0.036878683 0.067319974 0.19205853
0000f0 5c 39 49 bd f9 f1 94 bc b4 da 9f 3e 2d 30 73 3e
       -0.049126968 -0.018181788 0.31221545 0.23748846
000100 9c 6a 99 3e d0 16 c3 3d e5 ec 8d 3e 62 1d b6 3e
       0.2996415 0.095258355 0.277198 0.35569292
000110 42 a4 63 3d 99 85 08 3f 43 0d 64 3d fb 4c 4f 3e
       0.05557657 0.53328854 0.05567671 0.2024421
000120 3d 73 83 3d 1f 33 0e 3d 59 e7 ab 3e 1d cb 4c 3e
       0.06418464 0.03471672 0.33574942 0.19999357
000130 b3 62 59 bd f0 a6 ab 3e d6 3c 22 b8 7c 3c 77 3d
       -0.053072643 0.335258 -3.8680468e-05 0.060360417
000140 cb 7d 69 3e c8 4f 0d 3e 59 e8 28 3e 30 90 09 3e
       0.22801892 0.13799965 0.16494884 0.1343391
000150 a2 2a 9e 3d d9 d1 f3 3d df 88 6a 3e 00 1e 90 3d
       0.07722975 0.1190526 0.22903775 0.07036972
000160 b1 8b e6 3b 91 af b0 3d cc fb 13 3e 0f b0 79 3e
       0.0070356955 0.08627237 0.14451522 0.24383567
000170 48 fe 7a 3d ee 54 3d 3d 67 b8 0f 3e 79 3a 50 3e
       0.061277658 0.046223573 0.14035188 0.20334806
000180 09 16 a0 3d 32 b7 43 3e db d8 90 3e 31 0a 88 3d
       0.07816703 0.19112852 0.28290448 0.06642569
000190 19 86 a1 3e c0 10 0d 3e 6a 26 59 bc 00 cf dd bd
       0.3154762 0.13775921 -0.0132537875 -0.10830498
0001a0 f5 af cc 3d 4f 32 f0 3d 27 44 59 3e d8 a1 80 3e
       0.09994499 0.117283456 0.21217404 0.25123477
0001b0 b0 2b 10 be ba 47 8a 3d 1c 02 af 3e fa 91 e8 3e
       -0.14079165 0.06751962 0.34181297 0.4542387
0001c0 0e eb d0 3d 90 16 a8 3d ac 41 a3 3d d2 8f 4c 3d
       0.10201083 0.082074285 0.0797151 0.049941845
0001d0 26 ad 82 3e 06 6b 00 3e 2f 1a 5e 3e 1e 8e 94 3e
       0.25522727 0.12540826 0.21689676 0.29014677
0001e0 be f5 b1 3d a7 06 71 3e 8c 1e d6 3d e3 a5 84 3e
       0.0868945 0.23537694 0.10455045 0.25907812
0001f0 ad d5 56 3e cf a4 4a 3e 9c 04 be 3d 4d 11 52 3e
       0.20979948 0.19789432 0.09278223 0.20514412
000200 65 f8 af 3e 24 75 0c 3e 2f 83 24 3e 7e b6 8b 3d
       0.34369197 0.1371656 0.16065668 0.06821917
000210 6b ae ef 3c be 47 28 3e ae 76 c8 3e 2a ca 1c 3e
       0.029257974 0.16433617 0.39153045 0.15311494
000220 0f c6 9e 3e ef 46 90 3d 84 ee 0a 3f 91 8a 74 3e
       0.31010482 0.070447795 0.54270196 0.23880984
000230 54 68 3d 3e 4a ce de 3c 83 5d a9 3d 84 3e c2 3e
       0.1849683 0.027197976 0.08269789 0.3793832
000240 24 8c 90 3d 6c 17 93 3e 08 17 0c 3e 36 2f f1 3d
       0.0705798 0.28728807 0.1368066 0.11776583
000250 39 f5 2b 3e c4 fd d4 3d d0 75 81 3c da 8a db 3d
       0.16792764 0.103999645 0.015803248 0.10719843
000260 6e 4a 84 3e 57 bf a0 bc c4 29 44 3e 8c ef 85 3e
       0.25838035 -0.019622488 0.19156557 0.26159322
000270 5d 10 19 3e 28 9e 2b 3e 42 f6 74 3d 62 9a 4c 3e
       0.14947648 0.1675955 0.059805162 0.19980767
000280 7a f0 82 3e 3d 86 a4 3e 41 85 94 3e 2a 58 2d 3d
       0.25574094 0.32133666 0.29007915 0.042320408
000290 f6 2f 07 3e
       0.1320189

output_layer.weight f4 [104, 165]
000000 a4 1c cc bd 59 42 01 be a2 14 7d bc cf 5f 18 be
       -0.099664 -0.12622966 -0.015446814 -0.14880298
000010 80 bf ef bd e6 18 4b bd b9 da 00 be 69 6f 6d bd
       -0.117064476 -0.049584292 -0.12583436 -0.057967577
000020 73 63 8e bc 55 a0 f5 bd be a0 17 be 03 1a 75 bc
       -0.017381405 -0.119934715 -0.14807412 -0.014959815
000030 5a 8a 83 bd fc 3e 1c be 67 77 4d bd ff 90 54 bb
       -0.06422873 -0.15258402 -0.0501627 -0.0032435057
000040 5b 6e ad bd e4 34 82 bd 5b eb a8 bd 2c 7a 34 bd
       -0.08468314 -0.06357744 -0.082480155 -0.044061825
000050 64 6c 06 3d 63 0e 08 be 9e aa 87 bd d1 98 c1 bc
       0.032818213 -0.13286738 -0.066243395 -0.023632439
000060 34 5b 11 bd 20 b5 b1 bc 55 a6 e3 bd 55 0e 04 be
       -0.03548737 -0.021692812 -0.1111571 -0.12896092
000070 96 09 8c 3d 38 e8 01 be 8e c4 21 bc 13 21 14 be
       0.06837766 -0.1268624 -0.009873522 -0.14465742
000080 0c 95 90 3b e0 b2 2b bd 6b 7f 0b bc 44 ca 1b be
       0.004412299 -0.041918635 -0.0085142655 -0.15213877
000090 87 a1 80 bd ad 5e fe bc d5 6d 08 be 34 68 72 bd
       -0.06280809 -0.031051004 -0.13323148 -0.059181407
0000a0 08 98 87 bd 6f da b2 bd bd 17 14 bd cc 96 01 be
       -0.066207945 -0.08733069 -0.03615545 -0.1265518
0000b0 18 a0 54 bd 2a 6d 16 be e7 93 63 bd 38 11 1f bd
       -0.05191049 -0.1469008 -0.055560973 -0.03883478
0000c0 85 01 1b bd c1 39 ba bd b8 35 fc bd df c9 5f bc
       -0.037843246 -0.09093047 -0.123149335 -0.01365897
0000d0 5c 60 16 be 54 06 f8 bc df a5 aa bd 3d c7 27 bd
       -0.14685196 -0.030276455 -0.08332419 -0.040961493
0000e0 d0 84 8b bd 9c d9 e8 bd 15 64 ee bd 74 e4 14 bc
       -0.06812441 -0.11369631 -0.11640183 -0.009087671
0000f0 b0 00 ca bd 15 05 9a bd 82 8c 82 bd 31 ef 0e bd
       -0.098634124 -0.075205006 -0.06374456 -0.03489608
000100 93 5a 68 bc d9 58 b9 bc e7 9d 78 bd ff b8 1f bd
       -0.014181751 -0.022625374 -0.060697462 -0.038994785
000110 7a 01 a3 bd 62 0f 2e bc 52 e0 1b be 96 a6 60 bd
       -0.07959266 -0.010623785 -0.1522229 -0.05484637
000120 78 d4 9d bd e9 8a 04 be 07 ea 02 be 6c a1 09 be
       -0.07706541 -0.12943615 -0.12784587 -0.13440484
000130 88 af c2 bd 14 86 81 bd d6 87 fa bd 34 45 96 bd
       -0.09506136 -0.063244015 -0.1223294 -0.07337418
000140 91 f4 fe bc c1 70 13 bc 46 1d e3 bd 2d 53 95 bd
       -0.031122478 -0.008999051 -0.11089568 -0.07291255
000150 cb 0e 0c be 9e f4 b3 bc 22 0e be bd 52 97 e1 bd
       -0.13677518 -0.021967229 -0.09280039 -0.1101519
000160 ff ee 91 bb 29 7e 86 bc e1 fd a7 bd 50 2d b6 bd
       -0.0044535394 -0.01641758 -0.082027204 -0.088953614
000170 71 8a 40 bd 73 f2 b2 bd 9a 75 80 bd 19 94 f1 bd
       -0.047007028 -0.0873765 -0.06272431 -0.117958255
000180 f9 6d 9b bc 7c 15 17 be e5 61 eb bd 9f 76 1f be
       -0.018973337 -0.1475429 -0.11493281 -0.15572594
000190 3d e9 c3 bd 7a 83 d3 bd 30 da 51 3d 13 e3 d2 bd
       -0.09565971 -0.103278115 0.05123347 -0.10297217
0001a0 48 a7 dc bd 89 a5 b3 bd ca 7e 84 bd 0a 70 bc bd
       -0.10774094 -0.08771808 -0.064694956 -0.09201057
0001b0 27 83 79 bd fd 81 f7 bd 56 b1 95 bd 22 b4 08 be
       -0.060916092 -0.1208534 -0.07309215 -0.13349965
0001c0 e8 22 94 bd ef 3e 67 bb f1 62 c3 bd 41 82 b5 bd
       -0.0723322 -0.0035285314 -0.09540356 -0.088627346
0001d0 ce c0 bf bd 87 5d a0 bc 13 68 19 bd b8 cd 0a be
       -0.093629465 -0.019575847 -0.03745277 -0.13555038
0001e0 6d f8 ae bd 53 20 8e 3c d0 c0 c6 bd 77 fd 5a bd
       -0.08543477 0.017349398 -0.09704745 -0.05346438
0001f0 c6 36 dc bd 52 e3 a7 3c 0c 47 de bd a2 9b 91 bd
       -0.10752635 0.020494137 -0.10853395 -0.07109763
000200 42 24 f8 ba e4 0c fd bd 6a bb 77 3c 3c bc f6 bd
       -0.0018931704 -0.12355974 0.015120367 -0.120476216
000210 ec 39 28 be 09 fa 20 bd 33 bd d1 bd 53 0d 6f bc
       -0.16428345 -0.039300952 -0.10241165 -0.014590579
000220 03 ae 70 bd de 41 c4 bd 25 77 d5 bd a4 b1 a2 bc
       -0.0587597 -0.09582876 -0.10423116 -0.019860096
000230 80 86 fb bd 65 b2 dd bb 70 a5 01 bd e3 22 e1 bd
       -0.12281513 -0.006765651 -0.031651914 -0.10992982
000240 56 eb 8e bd 8e 2e 8a bd e9 5f 67 bd 29 3d f2 bd
       -0.069784805 -0.06747161 -0.05648795 -0.118280716
000250 6b d0 dc 3c 9f 08 9c bd c5 3a f9 bd fa c5 20 bd
       0.02695485 -0.07618832 -0.121694125 -0.039251305
000260 83 46 47 bd 75 7e 6e bc 4a d2 af bb 58 b6 35 bd
       -0.04865123 -0.014556517 -0.0053656446 -0.04436335
000270 ba 12 14 be 2c 13 d0 bc be 95 44 bd ae d8 84 3d
       -0.14460269 -0.025399767 -0.047994368 0.06486641
000280 36 68 ed bd 6b 8b b2 bd 87 b2 ac bc c3 2c 67 bd
       -0.11592142 -0.08717998 -0.021081222 -0.056439172
000290 b1 6d 1c bb 95 66 a2 3d 45 ac 77 3d 17 a8 57 3e
       -0.0023869092 0.07929722 0.060467023 0.21060215
0002a0 15 05 c7 3e 9c a3 8e 3e 39 89 aa be 17 39 dd be
       0.38871065 0.278592 -0.33307818 -0.4320762
0002b0 34 f0 d0 bd 87 9e 76 3e 27 a2 cd bd 26 0f cc be
       -0.10202065 0.24083911 -0.10040694 -0.39855307
0002c0 31 48 90 be f3 4c 94 be ef d5 61 be 28 62 a6 3d
       -0.28180078 -0.28964958 -0.22054265 0.081241906
0002d0 3f af 61 3f bd 8f 3b bc 8c 66 f4 bc f1 56 8e bd
       0.8815803 -0.011447844 -0.029834054 -0.069501765
0002e0 cc 39 a4 3e 60 48 67 be 98 99 0e be 96 d1 08 3e
       0.32075346 -0.22586203 -0.13925779 0.133612
0002f0 00 61 ef 3e 4b 8d 63 bd 97 21 8d bb d0 7b d1 be
       0.46753693 -0.05555467 -0.0043069827 -0.40914774
000300 25 ee 09 bf 7d 3b b6 ba dd 24 4d 3d b0 71 0f 3e
       -0.53879005 -0.0013903227 0.050083984 0.14008212
000310 f5 ec e8 bc 17 4a 8a be 77 98 30 3d 5c 41 37 be
       -0.028433302 -0.2700965 0.04311415 -0.17896026
000320 a6 13 83 be c2 bc 4e be e5 3d 1f 3e f3 bd 38 be
       -0.25600928 -0.20189193 0.15550955 -0.1804121
000330 81 2c 0d 3d 78 07 03 be 30 cb af bc 33 15 12 bf
       0.03446627 -0.12795818 -0.021459192 -0.570636
000340 98 5c 7c 3e a7 d3 fc 3d ee 68 99 3d 0f 40 0c 3f
       0.24644697 0.12345057 0.07490717 0.54785246
000350 b7 5a 82 3e 2b c5 79 bd d2 60 00 be c1 01 e8 bd
       0.25459835 -0.06097905 -0.12536934 -0.113284595
000360 9d ac 81 bd d8 0e e9 3e a0 e8 b8 3d 7e 9c 33 be
       -0.063317515 0.45519137 0.09028745 -0.17540166
000370 8f 4b ce be 1d 83 76 bd 66 c3 00 3e aa f1 26 be
       -0.40292022 -0.060183633 0.12574539 -0.16303125
000380 8d 9d fa 3e 57 29 ba 3e 21 99 0f 3e 43 9a c1 3d
       0.48948327 0.36359665 0.14023258 0.09453251
000390 cf ad da 3e 24 6c 82 be 4c e9 cd 3e 07 7b c2 bd
       0.4271073 -0.2547313 0.40217054 -0.09496122
0003a0 da 33 57 be f3 ba e0 3e b2 fb c5 3e 16 c6 bf 3d
       -0.21015874 0.4389263 0.3866859 0.09363954
0003b0 8b 64 aa bd c9 ef 05 3c 98 c3 1e 3e 98 97 39 bc
       -0.08319958 0.008174845 0.155043 -0.011327647
0003c0 25 fe 7a 3d c9 53 cc bc ad 74 44 be 5e 49 e4 3e
       0.061277527 -0.024942296 -0.19185133 0.44587225
0003d0 0c 3e 4a 3d b3 0f 20 be 2b 67 ae bc 46 83 7b bd
       0.04937558 -0.15630989 -0.021289429 -0.06140449
0003e0 61 43 53 3d 5c 35 48 bd de 68 43 3e 25 a5 e9 be
       0.05157793 -0.048879012 0.19082972 -0.45633808
0003f0 88 77 96 3e a5 e5 84 be e3 76 a6 be d8 11 06 bd
       0.2938807 -0.25956455 -0.32512578 -0.03273186

output_layer.bias f4 [104]
000000 7f 40 b0 3c 6b 4a 40 bd b4 04 2e 3d c3 f9 95 ba
       0.02151513 -0.04694597 0.042484954 -0.0011442233
000010 be 14 f3 bc 17 5f 83 bd 48 77 e7 bd 20 82 3c 3d
       -0.029672977 -0.06414621 -0.11302048 0.046022534
000020 1d 63 ae bd 13 32 63 bd 2c 8e c3 3c 4b 34 b0 bc
       -0.08514998 -0.055467676 0.023871504 -0.02150931
000030 4e ac e1 bc 99 20 7a 3d e8 3b 9d be 0a 16 92 bd
       -0.027547982 0.061066244 -0.30709767 -0.0713311
000040 19 f1 0f 3c 7d 41 af bd 77 b8 95 bd 79 df ad bd
       0.0087855095 -0.08557413 -0.073105745 -0.0848989
000050 e3 e4 3d bd 61 60 13 b9 48 54 39 3d f5 83 c9 3d
       -0.04636086 -0.00014054916 0.045246392 0.09839622
000060 ce c8 d1 3d a4 a2 7d bd 07 c4 02 be 0b 41 06 be
       0.102433786 -0.061922684 -0.12770091 -0.1311075
000070 cf dc b2 3d a5 b8 12 3b 28 96 c2 bd 6e dd 80 be
       0.08733522 0.0022387889 -0.09501296 -0.25168937
000080 74 31 8d bd 45 91 59 be 31 34 15 be 42 43 22 be
       -0.06894198 -0.21246822 -0.1457069 -0.1584597
000090 ef e9 83 bd 2c bc 44 be 49 44 64 be 79 f3 8a be
       -0.06441104 -0.19212407 -0.22291674 -0.2713888
0000a0 7a 8e 4f be 43 ff 4d be d0 39 31 be b5 b4 23 be
       -0.20269194 -0.20116906 -0.1730721 -0.15986903
0000b0 65 e2 02 be 81 10 ab bd 54 b2 b2 bc f3 36 83 bd
       -0.12781675 -0.08352757 -0.02181355 -0.06406965
0000c0 7e 83 18 3c 11 ea 90 bc d4 eb f5 bc cb bb 16 be
       0.009308694 -0.017689737 -0.030019678 -0.14720075
0000d0 bd 76 c9 bd 16 5f d6 bd e2 d6 3c bc 5e 48 b6 bc
       -0.09837101 -0.10467355 -0.011525841 -0.022251304
0000e0 66 c6 9e bd 94 44 67 39 e0 55 cd 3b 89 7d 87 3b
       -0.07752685 0.00022055424 0.0062663406 0.004134838
0000f0 e0 f5 7b be 55 29 85 bd c7 90 11 be 91 50 54 be
       -0.24605513 -0.06502024 -0.14215384 -0.20733859
000100 cb 0b 57 be 57 d7 0f be e4 f2 72 be d4 66 83 be
       -0.21000592 -0.1404699 -0.23725468 -0.2566439
000110 ec 8a 0f be 95 7b 2e be 3d 03 6b be e0 5e 63 be
       -0.14017838 -0.1703933 -0.22950454 -0.2220416
000120 6a 47 3c be f1 7b 1d be b4 63 71 be 04 b9 b6 bc
       -0.18386617 -0.15379311 -0.2357319 -0.02230502
000130 07 64 bc bd f9 51 0f bd ba f9 8b 3d 2e 72 de 3d
       -0.09198766 -0.034990285 0.06834741 0.10861622
000140 0b 7b 3b be 38 ed 0e be 43 20 0e bd 2d 1a 44 bd
       -0.18308656 -0.1395768 -0.034698736 -0.047876526
000150 40 ae 8a bd 51 86 10 bc 35 52 c4 bd ca 6f 08 be
       -0.06771517 -0.008821086 -0.09585992 -0.13323894
000160 a3 1c 28 bd 2a 6c 1e bd 46 61 13 be 07 4c f6 bc
       -0.041042935 -0.038677372 -0.14392576 -0.03006555
000170 b7 34 8d bb 6e ed 7e bd 48 b8 f0 bd cf 3b a0 bd
       -0.0043092626 -0.06223815 -0.11753899 -0.078239076
000180 e8 ee 9a 3b 71 2d 00 be fc 0e 0e be 34 9c 85 bd
       0.004728187 -0.12517335 -0.13872904 -0.06523934
000190 d2 25 5a 3b 38 46 12 3d 2d 49 06 3c c1 5e 24 bd
       0.0033286703 0.035711497 0.008196157 -0.040129427
