models/normal.pth (torch, 139935 bytes, 4 tensors)

e1.weight f4 [165, 104]
0	0x3e0a7564	0.13521343
1	0xbf21feda	-0.632795
2	0x3dba0d1c	0.09084532
3	0x3e3fc54f	0.18727611
4	0x3e6606e9	0.22463574
5	0xbe81e3bc	-0.2536906
6	0xbea52321	-0.32253364
7	0xbc5bc4f0	-0.013413653
8	0x3f124d7b	0.57149476
9	0x3ed3ca25	0.41365162
10	0x3daa7c66	0.08324508
11	0x3f1ec438	0.62018156
12	0xbea12c41	-0.31479076
13	0x3f144e6c	0.5793216
14	0x3f36edd0	0.71456623
15	0xbd88506a	-0.06655963
16	0xbdbc9bb2	-0.09209384
17	0x3d9cb3e6	0.076515004
18	0xbda279a7	-0.079333596
19	0x3e44b7b4	0.19210702
20	0x3dbc6c2c	0.0920032
21	0x3e1a9570	0.15096068
22	0x3c6c3127	0.014416016
23	0x3e1cf2a7	0.1532694
24	0xbdba06a4	-0.09083298
25	0x3b1c88cd	0.002388525
26	0x3dc4a272	0.096012965
27	0x3e0c02de	0.13672969
28	0x3e2da95a	0.16959134
29	0xbec2e9cf	-0.38069007
30	0x3e8cde60	0.2751341
31	0x3ee1e35c	0.44118774
32	0x3d86daa7	0.065846734
33	0x3f0b155c	0.54329467
34	0xbe4f8a52	-0.20267609
35	0x3e14a41d	0.14515729
36	0xbd0d2d6e	-0.034467153
37	0xbf029940	-0.5101509
38	0xbdeee9ee	-0.11665712
39	0xbea2880b	-0.31744418
40	0xbe83b39d	-0.25722972
41	0xbbb4c9a7	-0.005517203
42	0xbe0dadf9	-0.13835897
43	0xbcc4f691	-0.024043353
44	0xbe559644	-0.20858103
45	0x3cf45eea	0.029830415
46	0xbd519bda	-0.051174022
47	0xbb5623c1	-0.003267512
48	0x3dc39076	0.09549038
49	0x3e6b79fa	0.22995749
50	0xbd238f85	-0.039931793
51	0x3e11f20d	0.14252491
52	0xbd3b1566	-0.045674704
53	0x3e132e11	0.14373042
54	0x3daa7dc0	0.08324766
55	0x3d0200f5	0.031739194
56	0x3e5d6ba9	0.216231
57	0x3d738302	0.05945111
58	0x3d92b95a	0.07164259
59	0x3f3cb179	0.737083
60	0xbcdfb078	-0.027305827
61	0xbd2cc0b4	-0.042175964
62	0xbd21a491	-0.039463583
63	0x3d4e93ff	0.05043411
64	0x3d2ccd60	0.04218805
65	0x3d96ebf4	0.07369223
66	0xbe672517	-0.22572742
67	0x3d9b4d86	0.07583146
68	0x3ee3d86d	0.44501057
69	0x3e64c44f	0.22340511
70	0xbe0397df	-0.12850903
71	0xbe8a2476	-0.26980942
72	0xbe9927cc	-0.29913175
73	0x3e1bb14d	0.15204354
74	0x3ed3986d	0.4132723
75	0xbeb1cef5	-0.34728208
76	0xbe5697b1	-0.20956303
77	0xbc4b2a32	-0.012400197
78	0xbda45724	-0.08024433
79	0x3e8fc449	0.2807944
80	0x3b072701	0.0020622613
81	0xbca509f0	-0.02014634
82	0x3cabaee7	0.020957423
83	0xbdb12357	-0.08649319
84	0xbc813d74	-0.015776373
85	0xbd405340	-0.046954393
86	0x3db76a80	0.0895586
87	0xbc417790	-0.011808291
88	0xbc3697ca	-0.011144588
89	0xbce66880	-0.028126001
90	0x3cd73dac	0.026274525
91	0x3ece9ea8	0.4035542
92	0xbdbffa50	-0.09373915
93	0x3f2cfbed	0.6757191
94	0xbdc456b1	-0.095868476
95	0x3f30216a	0.68800986
96	0x3db1c40b	0.0867997
97	0x3bbf41f6	0.0058367206
98	0xbb75e55b	-0.003752074
99	0x3d85c026	0.0653079
100	0xbe659a4b	-0.2242214
101	0x3e1a6364	0.15076977
102	0xbdad1df4	-0.08452979
103	0x3baf29bb	0.005345551
104	0xbe97bedc	-0.29637802
105	0x3f43e144	0.76515603
106	0x3f0b2a3f	0.5436134
107	0x3de7d941	0.11320735
108	0xbd11596c	-0.03548567
109	0x3e97edda	0.29673654
110	0x3f855970	1.0417919
111	0xbdaacd6d	-0.08339963
112	0xbe3191ae	-0.17340729
113	0x3e4b41be	0.19849297
114	0xbeef823c	-0.46779048
115	0xbde50569	-0.111826725
116	0x3e940c04	0.28915417
117	0x3f0f4f4b	0.55980366
118	0x3d8be813	0.06831374
119	0x3c50b9da	0.012739623
120	0xbccacbb1	-0.02475533
121	0xbb2ceabf	-0.0026385037
122	0x3cefb9f0	0.029263467
123	0x3e627529	0.22115006
124	0x3c8d808a	0.017273206
125	0x3dfdfc0e	0.12401591
126	0x3cdb39d2	0.02676097
127	0x3d97216c	0.073794216
128	0xbd2ed26d	-0.042681146
129	0xbdb18012	-0.086670056
130	0x3d91db2d	0.071218826
131	0x3e08a3d7	0.1334375
132	0x3dcbefef	0.09957873
133	0x3ed1f620	0.4100809
134	0xbe31a8af	-0.17349504
135	0x3db514d6	0.08841865
136	0xbd16da7d	-0.03682946
137	0xbe9009fa	-0.28132612
138	0xbe6d29df	-0.23160504
139	0xbf1dee04	-0.6169131
140	0xbe7ba606	-0.24575052
141	0x3f6e4878	0.9307933
142	0x3e07ea04	0.13272864
143	0x3f815b9c	1.0106082
144	0x3e6a6280	0.22889137
145	0x3e477d80	0.19481468
146	0x3da8ed39	0.08248372
147	0x3e20bcd2	0.15697029
148	0x3e94879d	0.29009715
149	0x3d36a27e	0.04458856
150	0xbd77a5e9	-0.06046096
151	0xbd921ba9	-0.07134182
152	0xbd02686f	-0.031837877
153	0x3d9a4679	0.07532973
154	0x3b95c8a0	0.0045710355
155	0x3d6ccbd7	0.057811584
156	0x3d50f14a	0.05101136
157	0x3cf1c3c2	0.02951229
158	0x3d6d37fc	0.05791472
159	0x3d50e113	0.050995898
160	0x3e38646d	0.1800706
161	0xbd971483	-0.07376959
162	0x3e0482dd	0.12940545
163	0xbdd3d01f	-0.1034243
164	0x3e8cb5ba	0.27482396
165	0x3f092a29	0.53579956
166	0x3edd8070	0.43262053
167	0x3ec7d2ea	0.39028102
168	0x3e903611	0.2816625
169	0x3df9c86b	0.1219643
170	0x3f2bf43b	0.6716954
171	0x3d946cf0	0.07247341
172	0x3f1931f3	0.5984184
173	0x3e380ecc	0.17974395
174	0x3ed1e711	0.40996602
175	0x3e3187e3	0.17336993
176	0x3ea79691	0.3273206
177	0xbd78b129	-0.060715828
178	0x3e574627	0.21022855
179	0x3db3dbd0	0.0878216
180	0xbe7cecde	-0.24699733
181	0xbdb58b13	-0.08864417
182	0x3cd45c46	0.025922906
183	0x3e1ef193	0.15521841
184	0x3d8e4eda	0.069486335
185	0x3cd350c6	0.025795352
186	0xbd624208	-0.055238754
187	0xbda70d6a	-0.081568554
188	0x3d872241	0.0659833
189	0xbd83b630	-0.06431234
190	0xbd0da213	-0.034578394
191	0xbd643093	-0.055710386
192	0xbc503ab8	-0.012709312
193	0x3c1d7d36	0.009612372
194	0x3c43afcf	0.0119437715
195	0xbd5e6c5a	-0.05430255
196	0x3b68c452	0.0035517407
197	0x3dd265d4	0.102733284
198	0xbd00f1f9	-0.031480763
199	0xbef474c3	-0.47745332
200	0x3d3f27be	0.04666876
201	0x3d84de84	0.06487754
202	0xbd81d572	-0.063395396
203	0x3d12232a	0.035678066
204	0x3e80996f	0.2511706
205	0x3f07537c	0.5286176
206	0xbd266c3b	-0.04063056
207	0xbdc1f16c	-0.09469876
208	0xbe06f0c4	-0.13177782
209	0x3eff9d78	0.49924827
210	0xbdab2867	-0.083573155
211	0x3e8be055	0.2731959
212	0x3f56cbe0	0.8390484
213	0x3d52fe16	0.051511846
214	0xbefe9206	-0.49720782
215	0x3eab0697	0.33403465
216	0x3dc9be86	0.098507926
217	0xbed71a14	-0.42012084
218	0xbf165d02	-0.5873567
219	0xbed299f0	-0.4113307
220	0xbe9f4b31	-0.31112054
221	0x3edce0bf	0.43140218
222	0x3e7a4261	0.24439384
223	0xbdb5d125	-0.08877782
224	0x3da77221	0.08176065
225	0xbda5ecfa	-0.0810184
226	0xbd804511	-0.06263173
227	0x3e6c0359	0.23048152
228	0xbd093096	-0.0334936
229	0x3e0c9a28	0.13730681
230	0x3d22a604	0.039709106
231	0x3e92157f	0.28532025
232	0xbd0137d1	-0.03154737
233	0x3d8edce4	0.06975725
234	0x3e8c8e91	0.2745252
235	0x3c5cfab8	0.01348751
236	0x3e52f189	0.20599951
237	0x3efc6bc5	0.49300972
238	0x3dfd0ecc	0.12356338
239	0xbe0e6fe1	-0.13909866
240	0xbe0933d4	-0.13398677
241	0xbf1a7553	-0.6033527
242	0x3d3f333d	0.046679724
243	0xbecd8cd9	-0.4014652
244	0x3d8e3a82	0.06944753
245	0xbcb52768	-0.022113517
246	0xbe73ef8c	-0.23821849
247	0xbe0cf028	-0.13763487
248	0x3da5da36	0.08098261
249	0xbeadb330	-0.33925772
250	0x3ea3ec2a	0.32016116
251	0xbf2adf17	-0.6674666
252	0x3f0b5557	0.54427093
253	0xbd3aaa9d	-0.045572866
254	0xbaf20da3	-0.0018467199
255	0x3d689049	0.056778226

e1.bias f4 [165]
0	0x3e1d4ea8	0.15362036
1	0x3d9d8563	0.07691457
2	0x3e3f2df2	0.1866987
3	0x3e0e374d	0.13888283
4	0x3d51ad97	0.05119094
5	0x3dd16f8a	0.102263525
6	0x3e5c4fd6	0.2151483
7	0xbb84c7d3	-0.004052141
8	0xbbceb430	-0.006308101
9	0x3d0ebcd8	0.034848064
10	0x3cf00327	0.029298378
11	0x3e164e9f	0.14678429
12	0x3dac8dac	0.08425459
13	0x3e6e2287	0.23255359
14	0xbe2a0dfd	-0.16606899
15	0x3d84e428	0.0648883
16	0x3c533de8	0.012893178
17	0x3c916484	0.017748125
18	0x3e81654a	0.2527259
19	0x3e865053	0.26233158
20	0x3d5944fb	0.0530443
21	0xbc9ef600	-0.019404411
22	0x3c2f344a	0.010693619
23	0x3e82bf8d	0.25536767
24	0x3c4de833	0.012567568
25	0xbcbd866b	-0.023135385
26	0x3eb7ec49	0.3592246
27	0xbd43c8c3	-0.047798883
28	0xbe118345	-0.14210232
29	0x3e6723cb	0.22572248
30	0x3c3dea97	0.011591575
31	0x3e332c32	0.17497328
32	0x3e9fdf6f	0.31225154
33	0x3ea82f7d	0.3284873
34	0xbdb0eb7e	-0.086386666
35	0xbdac15fe	-0.08402632
36	0x3e9c2df0	0.30503798
37	0x3e04d77c	0.12972826
38	0x3e161993	0.14658193
39	0x3ec2f31b	0.380761
40	0x3e22f87d	0.15915103
41	0xbddeaf0f	-0.108732335
42	0x3e99405a	0.2993191
43	0x3e12edf0	0.14348578
44	0x3c939f5a	0.01802032
45	0x3e8e25dc	0.2776326
46	0x3de60602	0.11231615
47	0x3e19557b	0.14974014
48	0x3e2bc001	0.16772462
49	0xbd7e6087	-0.062103774
50	0x3dc362a8	0.095403016
51	0x3e9c32ab	0.30507407
52	0x3c96b007	0.018394483
53	0x3d19f2de	0.03758513
54	0x3d89581e	0.0670626
55	0x3dfac4d5	0.12244574
56	0x3e13df10	0.1444056
57	0x3e5c432f	0.21510004
58	0x3e8f6f11	0.28014424
59	0x3d92eb24	0.07173756
60	0x3e054edb	0.13018362
61	0x3e6cb61d	0.23116346
62	0xbb310884	-0.0027013132
63	0x3e266824	0.16250664
64	0x3cf5b05c	0.029991321
65	0x3dd92658	0.106030166
66	0x3db7ec34	0.08980599
67	0x3ecb6d39	0.39731768
68	0x3cdc0dbd	0.02686202
69	0x3e636dfe	0.22209927
70	0x3dbce973	0.092242144
71	0x3c5eba62	0.013594242
72	0x3dde4028	0.108520806
73	0x3e27802c	0.16357487
74	0x3e435730	0.19076228
75	0x3e0b4b1a	0.13602868
76	0x3d67728c	0.056505725
77	0x3f025dcd	0.5092438
78	0x3e689132	0.22711638
79	0x3e10740b	0.14106767
80	0x3d1db4bf	0.03850245
81	0xbd2c8acd	-0.04212456
82	0x3d878258	0.06616658
83	0x3dbdd5d9	0.09269304
84	0x3c44113b	0.011966999
85	0x3e3b667b	0.18300812
86	0x3b36ed2a	0.0027912357
87	0x3eaaf1a4	0.33387482
88	0x3ddb019d	0.10693667
89	0xbc889340	-0.016671777
90	0x3dd6e1c0	0.10492277
91	0x3e6b68ea	0.2298924
92	0x3dc1780a	0.09446724
93	0x3e1cef58	0.15325677
94	0x3d91a070	0.07110679
95	0x3e15a978	0.14615428
96	0xbdc747db	-0.09730502
97	0x3e98e041	0.29858592
98	0xbd170302	-0.036868103
99	0x3db07be1	0.08617378
100	0x3e4bf61b	0.199181
101	0xbc1a6090	-0.009422436
102	0x39e27b0d	0.0004319776
103	0x3e45935c	0.19294494
104	0x3baeb0b2	0.0053311223
105	0x3d204be2	0.039134867
106	0x3caee2a0	0.021348298
107	0x3d776b78	0.060405225
108	0x3d9fc0a6	0.07800417
109	0x3e52790a	0.20553985
110	0x3cce3e5c	0.02517622
111	0xbdcd0d60	-0.10012317
112	0x3e6737a3	0.22579817
113	0x3e3dcbf5	0.18534835
114	0x3e714e78	0.2356509
115	0x3deb5ad6	0.11491935
116	0x3d739733	0.059470367
117	0x3e2abde8	0.16674006
118	0xbcf2b836	-0.029628854
119	0x3e2f9213	0.17145567
120	0x3e72e8c9	0.23721613
121	0x3e3034c9	0.17207636
122	0x3d9add28	0.075617135
123	0x3baa7954	0.0052024517
124	0x3e87074e	0.2637276
125	0x3e20166b	0.15633552
126	0x3cbc1de2	0.022963468
127	0x3d80c70e	0.06287967
128	0x3e944d4c	0.28965223
129	0x3da80fbb	0.08206125
130	0x3dc133ab	0.09433683
131	0xbd43c5d0	-0.04779607
132	0x3de01137	0.109407835
133	0x3da48cff	0.08034705
134	0x3e1b2b7d	0.15153308
135	0x3e293e74	0.1652773
136	0x3e2c94cf	0.16853641
137	0x3d49a728	0.04923168
138	0x3e129124	0.14313179
139	0x3c72db57	0.0148228025
140	0x3c173e14	0.009231109
141	0x3d5ad8e2	0.05342949
142	0x3e8e4194	0.27784407
143	0xbe380f91	-0.17974688
144	0x3e3bc7f2	0.18337992
145	0x3e207220	0.15668535
146	0x3d7ba22c	0.061433956
147	0x3db1f1dd	0.0868871
148	0xbc37be96	-0.011214873
149	0xbd50b5ac	-0.050954506
150	0x3e28a476	0.16468987
151	0xbc468dc4	-0.0121187605
152	0x3d847744	0.064680606
153	0xbd981d6f	-0.07427489
154	0xbc389631	-0.011266277
155	0x3ece7cc5	0.40329567
156	0x3e420380	0.18946648
157	0x3e81dea9	0.2536519
158	0x3d241e59	0.040068004
159	0x3e8ae3a4	0.271268
160	0xbe1078fb	-0.1410865
161	0xbd5d9fc7	-0.054107454
162	0xbd26120a	-0.040544547
163	0xbccf43b1	-0.025300832
164	0xbda87dc4	-0.08227113

output_layer.weight f4 [104, 165]
0	0x3df623dd	0.12018559
1	0xbec4686d	-0.3836092
2	0xbe97f7c2	-0.29681212
3	0xbe22fdf7	-0.15917192
4	0x3d3d74db	0.04625402
5	0xbe9df5e9	-0.30851677
6	0x3dadfb77	0.08495229
7	0xbd926142	-0.07147457
8	0xbd5b72de	-0.053576343
9	0xbd4e3785	-0.050345916
10	0x3e8b4776	0.27202958
11	0xbed21f02	-0.41039282
12	0x3d949eb1	0.072568305
13	0xbc849c3f	-0.016187785
14	0x3dc84fce	0.097808465
15	0xbde8979c	-0.11357042
16	0xbe2d173b	-0.16903393
17	0x3ca6de85	0.020369777
18	0x3dd04517	0.10169428
19	0x3d56427c	0.0523095
20	0xbdfeee78	-0.12447828
21	0xbe160851	-0.1465161
22	0x3e8a7ffb	0.27050766
23	0xbe94e42f	-0.2908034
24	0xbe266aa8	-0.16251624
25	0xbed7b982	-0.4213372
26	0x3d43d20b	0.047807734
27	0xbe0384c6	-0.12843618
28	0x3dd9660d	0.10615168
29	0xbd8a06df	-0.06739592
30	0xbe5d667c	-0.21621126
31	0x3e06f971	0.13181092
32	0x3dd43d5a	0.103632644
33	0x3df499de	0.1194341
34	0xbe0db5d9	-0.138389
35	0x3db67752	0.08909477
36	0xbd9fd37f	-0.078040116
37	0xbd4ce19f	-0.050019857
38	0x3e89aebc	0.26891124
39	0x3cd7f2f6	0.02636097
40	0xbbf534d2	-0.0074831033
41	0x3e02319a	0.12714234
42	0x3d1a305d	0.03764378
43	0x3cf5e5b3	0.030016756
44	0xbd0d15a4	-0.034444466
45	0xbead0fb0	-0.3380103
46	0x3e649d4a	0.22325626
47	0x3e136f6a	0.1439797
48	0x3d78f0cc	0.060776517
49	0x3e20fb33	0.15720825
50	0xbe5c0fbb	-0.21490376
51	0x3d2d9b65	0.042384524
52	0xbea04907	-0.31305715
53	0x3e1c33a2	0.15254071
54	0xbe971a78	-0.29512382
55	0x3e0a1477	0.13484369
56	0xbe34b6a9	-0.17647804
57	0x3d416e4a	0.04722432
58	0xbf08a734	-0.5338013
59	0x3e4cc15a	0.19995633
60	0x3de17744	0.11009076
61	0xbe9a371f	-0.3012018
62	0xbd12ce3f	-0.035841223
63	0xbd9f8e06	-0.07790761
64	0xbd0c63b8	-0.034274787
65	0x3ebdc873	0.37066993
66	0xbf2100c7	-0.6289181
67	0xbcbd5ab8	-0.023114547
68	0xbea678dd	-0.32514086
69	0x3e12c681	0.14333536
70	0x3d9d113a	0.07669301
71	0x3e7da102	0.24768451
72	0x3e827536	0.2548005
73	0xbeb3c3f8	-0.3511045
74	0x3e5112b3	0.2041729
75	0x3d6f7464	0.058460608
76	0x3e14c3c3	0.14527802
77	0x3c7e3e9f	0.01551786
78	0x3d9a1542	0.07523586
79	0xbf4b09a7	-0.79311603
80	0xbe222320	-0.15833712
81	0xbeb5df78	-0.35522056
82	0xbf504058	-0.8134818
83	0x3d7f2989	0.06229547
84	0x3e842e06	0.25816363
85	0xbe8cdadf	-0.27510735
86	0x3ca4e63c	0.020129316
87	0x3c0f22b9	0.008736306
88	0xbe2815a0	-0.164145
89	0xbdbd717e	-0.092501625
90	0x3dcefc1a	0.10106678
91	0xbd63396f	-0.055474695
92	0xbd27d592	-0.04097516
93	0x3c322d8e	0.010875119
94	0xbe7092ad	-0.23493452
95	0x3e0b570a	0.13607422
96	0x3c23c79c	0.009996321
97	0x3c811218	0.015755698
98	0xbe61c539	-0.2204789
99	0x3de571d4	0.112033516
100	0xbca526a2	-0.020160023
101	0xbd35b2df	-0.044360038
102	0x3e047ee9	0.12939037
103	0x3e94caf1	0.29061082
104	0x3e072471	0.13197495
105	0x3d61dc66	0.05514183
106	0x3d5bf2f7	0.053698506
107	0x3d5ec45e	0.05438649
108	0x3d4392d1	0.047747437
109	0x3e0f42de	0.13990352
110	0xbeb6d2ad	-0.35707608
111	0xbdaea04d	-0.08526669
112	0x3dff6132	0.124697104
113	0x3c9a5ba4	0.018842526
114	0xbe447821	-0.1918645
115	0xbdc862f3	-0.09784498
116	0xbe12777f	-0.14303397
117	0xbe2017b0	-0.15634036
118	0x3d563329	0.052294884
119	0x3e173e79	0.14769925
120	0x3d643482	0.055714138
121	0xbe52f2d9	-0.20600452
122	0x3c50ce10	0.012744442
123	0xbe2b3262	-0.16718438
124	0xbe685889	-0.22690023
125	0xbe10cc41	-0.14140417
126	0xbe613635	-0.21993335
127	0xbdc025fa	-0.093822435
128	0xbe19a346	-0.1500369
129	0x3d16a0dd	0.036774505
130	0xbb32fe70	-0.00273123
131	0x3d690da6	0.05689778
132	0xbedd410a	-0.43213683
133	0xbdc4abbf	-0.096030705
134	0x3e85213a	0.26001912
135	0xbe3bc8a0	-0.18338251
136	0xbe27f8bf	-0.16403483
137	0x3e1bedb8	0.15227401
138	0x3d71a600	0.0589962
139	0xbb20b79a	-0.0024523498
140	0x3daedac0	0.08537817
141	0xbdf31c99	-0.11870689
142	0x3de6b9ea	0.11265929
143	0xbe3d1725	-0.1846586
144	0x3ca3a30f	0.019975213
145	0x3e3afbd5	0.18260129
146	0xbec964e8	-0.39334798
147	0xbe93f7e9	-0.28900078
148	0xbe64582c	-0.2229926
149	0xbe7c0ec0	-0.24615002
150	0x3dce0f3b	0.10061499
151	0xbe154bb5	-0.14579661
152	0x3e388f1a	0.18023339
153	0xbe43481f	-0.19070481
154	0xbe5ede32	-0.21764448
155	0x3df9e920	0.12202668
156	0xbe0850f6	-0.13312134
157	0x3d9a14e0	0.07523513
158	0x3cb1f576	0.02172349
159	0x3d790d98	0.06080398
160	0xbd3538ec	-0.044243738
161	0xbe489cad	-0.19591017
162	0xbdd4989d	-0.10380671
163	0xbdcd3d29	-0.10021431
164	0xbe46529c	-0.1936745
165	0xbf0c2e2c	-0.5475795
166	0x3eb0e9e5	0.34553447
167	0x3ed55f92	0.41674477
168	0xbca46a70	-0.020070285
169	0x3f271b5f	0.6527614
170	0x3f0df235	0.55447704
171	0xbed5e669	-0.41777351
172	0xbd8aec35	-0.06783334
173	0xbf006646	-0.50156057
174	0xbdaabfcc	-0.083373636
175	0xbe87529a	-0.26430207
176	0x3ea3a989	0.31965283
177	0x3cac0f86	0.021003496
178	0x3f09288a	0.5357748
179	0xbdd68326	-0.10474233
180	0xbe3cd448	-0.18440354
181	0x3e44c08f	0.1921408
182	0x3c70b218	0.014690898
183	0x3e58ce0f	0.21172355
184	0x3e5f5e63	0.2181335
185	0xbe6519e8	-0.22373164
186	0xbc9ced63	-0.019156164
187	0xbe6e470e	-0.23269293
188	0xbedc4815	-0.43023744
189	0xbcc9dbdd	-0.024640972
190	0x3e975b61	0.29561904
191	0x3e531e85	0.20617111
192	0xbce1b1ed	-0.027550662
193	0xbcc84bd8	-0.024450228
194	0xbe3c6de5	-0.18401296
195	0xbf4590f9	-0.77174336
196	0xbdb6f97e	-0.089343056
197	0x3d102b27	0.035197403
198	0xbf6f900c	-0.93579173
199	0x3e3ebee8	0.18627512
200	0xbf06d71f	-0.52672
201	0x3e91bed2	0.28465897
202	0x3e3a6e8e	0.18206236
203	0xbe091e47	-0.13390456
204	0x3e4181a3	0.18897109
205	0x3f21f264	0.63260484
206	0xbf0ebebb	-0.5575978
207	0xbcd9e3ce	-0.026597884
208	0x3e2be01d	0.16784711
209	0x3eab4b18	0.3345573
210	0xbf3d7178	-0.74001265
211	0xbe7f2e6f	-0.24920057
212	0x3ef44881	0.47711566
213	0x3ea35f28	0.31908536
214	0x3e21a7b2	0.15786627
215	0x3e9d8bc4	0.30770695
216	0xbe2a1f9f	-0.16613625
217	0xbe9740be	-0.29541582
218	0x3dd34a6e	0.10316931
219	0xbd94296f	-0.07234465
220	0xbdd16326	-0.10223989
221	0xbe80b891	-0.25140813
222	0xbf2623da	-0.64898455
223	0x3e2cdf19	0.1688198
224	0xbf542fff	-0.82885736
225	0x3e3d92fc	0.18513101
226	0x3f133211	0.5749827
227	0x3e221b13	0.1583064
228	0x3e03065e	0.12795398
229	0x3e9d79d8	0.30757022
230	0xbe6d970c	-0.23202151
231	0x3ebd08aa	0.36920673
232	0x3dec7bfb	0.11547085
233	0x3ee5de14	0.44895995
234	0xbf39d5f6	-0.72592103
235	0xbc83977f	-0.01606345
236	0x3dfd3c97	0.12365072
237	0xbebc9913	-0.36835536
238	0x3ed1cc4b	0.40976176
239	0xbe9444e9	-0.28958824
240	0x3eb42a1c	0.35188377
241	0xbee5eb79	-0.44906214
242	0xbe1562ef	-0.14588521
243	0x3daeafbd	0.08529613
244	0x3eae651c	0.34061515
245	0xbe4d347e	-0.20039555
246	0xbe83a52e	-0.2571196
247	0x3e95a705	0.29228988
248	0xbda65c94	-0.081231266
249	0xbf172f7e	-0.5905684
250	0x3de1d765	0.11027411
251	0x3e43eec9	0.19134058
252	0x3e2b3512	0.16719463
253	0xbe57d6c8	-0.21078026
254	0x3e83cb86	0.25741214
255	0x3da34d03	0.07973673

output_layer.bias f4 [104]
0	0x3d632b6d	0.055461336
1	0xbe26c2e6	-0.16285285
2	0xbe70af30	-0.23504329
3	0xbe5b3ede	-0.214107
4	0xbe265da3	-0.16246657
5	0xbe15fb74	-0.14646703
6	0xbe05e301	-0.13074876
7	0xbe37a9fb	-0.17935936
8	0xbea8d7c0	-0.32977104
9	0xbe0da748	-0.13833344
10	0xbe9113cf	-0.28335425
11	0xbe7eb905	-0.24875267
12	0xbc77e9c8	-0.015131421
13	0xbe7110ec	-0.23541611
14	0xbe93f81f	-0.2890024
15	0xbdde87d1	-0.10865749
16	0xbdb913e4	-0.09036997
17	0xbdf03e86	-0.117306754
18	0xbdb13f26	-0.08654623
19	0x3c2525e7	0.010079837
20	0xbdebaa5c	-0.11507103
21	0x3c31623e	0.010826645
22	0xbd724c7c	-0.059154972
23	0xbde25cbe	-0.110528454
24	0xbdb66c83	-0.08907416
25	0xbcb293dd	-0.021799022
26	0xbdcefcea	-0.10106833
27	0xbd38ffb7	-0.045165744
28	0x3d3b84b5	0.045780856
29	0xbcc1d5a6	-0.023661446
30	0xbdc232b3	-0.09482326
31	0x3bdd2b76	0.0067495657
32	0xbe43678c	-0.19082469
33	0xbe0f5a44	-0.13999277
34	0xbe320420	-0.17384386
35	0xbd66de68	-0.056364447
36	0xbddbd205	-0.107334174
37	0xbe393c27	-0.18089353
38	0xbeb0e39f	-0.3454866
39	0xbe7e86d2	-0.24856117
40	0xbe56b1ce	-0.20966265
41	0xbe9064e1	-0.28201964
42	0xbcdec1ea	-0.027192075
43	0xbe61bd78	-0.22044933
44	0xbe354094	-0.17700416
45	0xbe0efaef	-0.13962911
46	0xbda5a7a2	-0.08088614
47	0xbc855fe6	-0.01628108
48	0xbe1cbd4b	-0.15306585
49	0xb983d769	-0.0002514676
50	0xbd1fa79a	-0.038978197
51	0x3d4ec60a	0.050481834
52	0xbdaaeb0b	-0.08345612
53	0x3d54c54c	0.05194597
54	0xbdd75261	-0.105137594
55	0xbdae286c	-0.085038036
56	0x3a1dd0ca	0.00060201867
57	0xbd2742de	-0.040835254
58	0xbd7191f6	-0.05897709
59	0xbdb2bc7d	-0.087273575
60	0xbdc9f52a	-0.098612145
61	0xbdf6d145	-0.12051634
62	0xbe0ca283	-0.13733868
63	0xbe006a4b	-0.12540548
64	0xbdc4522c	-0.095859855
65	0xbe4497dc	-0.19198555
66	0xbdd6cfff	-0.10488891
67	0xbd8add07	-0.06780439
68	0xbe9d81d9	-0.30763128
69	0xbea6d768	-0.32586217
70	0xbe22f9ce	-0.15915605
71	0xbe65b910	-0.22433877
72	0xbe9b42ae	-0.3032431
73	0xbe2cff42	-0.16894248
74	0xbe14ef4f	-0.14544414
75	0xbd8426e8	-0.06452733
76	0xba937cf7	-0.0011252452
77	0xbcd4cc19	-0.025976228
78	0xbd2df4ce	-0.042469792
79	0x3dc44ce3	0.095849775
80	0xbd8d0880	-0.06886387
81	0xbd2b40cc	-0.041809842
82	0xbbe0ca72	-0.006860071
83	0xbdc9462d	-0.09827838
84	0xbd361d4b	-0.04446153
85	0xbdd6900e	-0.10476695
86	0xbdefb8b4	-0.11705151
87	0xbe1f9ba2	-0.15586713
88	0xbd159fcf	-0.03652936
89	0xbd9633b7	-0.073340826
90	0xbe09f07d	-0.13470645
91	0xbd487386	-0.048938297
92	0xbddf63ab	-0.10907682
93	0xbd142590	-0.036168635
94	0xbddecc09	-0.1087876
95	0x3bdf55db	0.0068156547
96	0xbd157eca	-0.03649787
97	0xbd8dc7e0	-0.06922889
98	0xbc7445d4	-0.014909226
99	0xbdb30393	-0.08740916
100	0x3cc5949f	0.02411872
101	0xbe1a797b	-0.15085404
102	0xbb6687f4	-0.003517625
103	0xbc8ada78	-0.016949877
