models/suspicipus.pth (torch, 139935 bytes, 4 tensors)

e1.weight f4 [165, 104]
-0.04063315 0.003360609 0.8636721 0.30265373 0.3769389 0.17609324 0.47251663 0.15776962
-0.16277216 0.01469429 0.12881897 0.59532195 0.15769109 0.88770676 0.22980739 0.9409785
-0.33873612 -0.22656785 -0.09171115 -0.84229505 0.4380209 0.365633 0.050750066 -0.056606375
0.77307606 0.25401366 -0.34179276 0.8703245 0.9091455 0.5146108 -0.6305824 0.8668161
0.36188814 -0.13015789 0.29226738 -0.37860438 0.40357298 -0.79843456 -0.15720946 0.09655765
0.22398384 -0.0016248705 0.17354208 0.5856706 -0.58483505 0.13214011 -0.24710505 -0.33839932
-0.5158238 -0.19560952 -0.82538366 0.60254556 0.89089274 0.23248997 0.36708394 0.0245823
-0.1237001 0.13214612 -0.22686994 0.11278466 -0.11432895 0.026657296 -0.7143604 -0.4514738
-0.30567682 0.6190768 0.28967458 0.034916926 -0.55081505 0.3096594 0.323786 0.22115748
0.09724347 0.55135584 -0.44053188 0.11881053 -0.05700532 -0.03335 0.79971355 0.5627148
-0.055977114 -0.060452823 0.033921983 0.13852155 0.0750075 0.022341765 -0.08368141 -0.041240886
-0.042406484 0.43456218 0.6995062 -0.8299363 -0.04372301 -0.02570712 -0.9340752 0.04158942
1.0021373 -0.07978017 0.038054075 -0.08352137 1.1232073 0.051815007 -0.048653558 -0.43183485
-0.10529351 -0.09405264 -0.22871278 0.11820784 0.4794443 0.53853256 0.38762492 -0.25590092
0.33858117 -0.35507193 0.03149427 0.32021645 0.76036865 0.87813365 0.19434471 -0.24635561
0.06346275 -0.31065574 -0.37819517 -0.09469991 -0.43075123 0.4482272 0.24687319 0.3864906
-0.03136458 -0.17877404 0.3916188 -0.119949356 -0.287167 0.3628001 -0.16561523 0.24499288
0.26329806 -0.46643603 0.2938804 -0.00787997 0.9264291 0.62733126 0.15165785 -0.0038798887
-0.21852027 -0.08474688 0.07187526 -0.47942847 -0.2751312 -0.08815811 0.4612861 0.60100675
0.56120634 0.36520115 0.74719137 0.066758335 0.13828877 -0.15427177 0.17722087 0.42206532
-0.7018993 0.035402026 0.32792613 0.26869193 0.707777 -0.16174665 -0.31690332 0.7422099
0.13045527 -0.27966252 0.6676826 0.4538256 0.44822398 0.907909 0.0781106 0.16374055
0.07610829 -0.360255 0.13915703 -0.19161029 -0.08764555 0.082260124 -0.26188266 0.029724134
-0.29492158 0.065660864 0.022288002 0.0319638 -0.071440205 0.034949023 -0.024090828 0.04418942
0.031423543 -0.2922763 0.9462333 -0.9894273 -0.26725963 -0.023932049 1.1065706 -0.0017336517
1.3220174 -0.031173682 0.042312317 0.10192913 -0.955556 0.3414908 -0.02497934 -1.0127594
0.16683039 -0.2680138 -0.5840571 -0.10610391 -0.19047545 -0.12704867 0.3593359 -0.63360465
0.4463375 0.56062114 0.5166686 0.020392235 -0.1815227 0.6418064 0.3211724 0.6089475
0.030252697 -0.80555195 0.40799943 -0.3191668 0.48958626 -0.064007066 0.33866644 -0.017176889
0.15016326 0.21718313 -0.0007329854 0.23769198 0.90821034 -0.2472825 0.02134968 -0.18463512
0.79794496 0.06207561 0.5092855 -1.1732335 0.25023097 0.47156584 0.14005509 0.30676472
-0.07384622 -0.1492848 -0.10282647 0.41685694 0.29367447 -0.09261864 0.73666954 -0.08147346
00000000: f26e 26bd aa3d 5c3b 9d19 5d3f 6ef5 9a3e
00000010: 23fe c03e c951 343e b3ed f13e 5c8e 213e
00000020: bfad 26be 52c0 703c 1fe9 033e 0567 183f
00000030: c679 213e c040 633f a152 6b3e f8e3 703f
00000040: d26e adbe 6701 68be 0ed3 bbbd a6a0 57bf
00000050: 4744 e03e 4034 bb3e 4ddf 4f3d 16dc 67bd
00000060: 50e8 453f 140e 823e 76ff aebe 96cd 5e3f
00000070: c2bd 683f 89bd 033f d96d 21bf a9e7 5d3f
00000080: 6749 b93e 1c48 05be 12a4 953e 6fd8 c1be
00000090: 1ea1 ce3e 3566 4cbf 84fb 20be 04c0 c53d
000000a0: 055c 653e 9bf9 d4ba 04b5 313e 82ee 153f
000000b0: c0b7 15bf bd4f 073e 1b09 7dbe ad42 adbe
000000c0: 070d 04bf dd4d 48be 584c 53bf 6d40 1a3f
000000d0: 8c11 643f da11 6e3e 6df2 bb3e d260 c93c
000000e0: 7a56 fdbd 5051 073e 9850 68be a5fb e63d
000000f0: 4c25 eabd 6760 da3c 53e0 36bf 9327 e7be
00000100: ac81 9cbe d17b 1e3f 3a50 943e 0d05 0f3d
00000110: 3702 0dbf ad8b 9e3e 47c7 a53e 1b77 623e
00000120: 9627 c73d a825 0d3f 658d e1be ef52 f33d
00000130: 697e 69bd 029a 08bd 07ba 4c3f 140e 103f
00000140: 4248 65bd 619d 77bd c7f1 0a3d 98d8 0d3e
00000150: 889d 993d 1406 b73c 2961 abbd 34ec 28bd
00000160: 6cb2 2dbd ef7e de3e d712 333f b576 54bf
00000170: e616 33bd bd97 d2bc 8d1f 6fbf ab59 2a3d
00000180: 0946 803f c963 a3bd 97de 1b3d 410d abbd
00000190: 42c5 8f3f f93b 543d f448 47bd 7519 ddbe
000001a0: 20a4 d7bd ac9e c0bd af33 6abe f416 f23d
000001b0: b979 f53e 45dd 093f c676 c63e 7205 83be
000001c0: 835a ad3e fdcb b5be 2300 013d 69f3 a33e
000001d0: 85a7 423f 5ecd 603f 4d02 473e a544 7cbe
000001e0: c2f8 813d 450e 9fbe cca2 c1be 07f2 c1bd
000001f0: 6d8b dcbe 097e e53e 53cc 7c3e 19e2 c53e
00000200: 2578 00bd 8b10 37be 4282 c83e 02a8 f5bd
00000210: 8e07 93be efc0 b93e 0a97 29be 6adf 7a3e
00000220: 01cf 863e b4d0 eebe 7e77 963e fd1a 01bc
00000230: 752a 6d3f c898 203f 324c 1b3e bb45 7ebb
00000240: c7c3 5fbe c68f adbd 5633 933d a677 f5be
00000250: ffdd 8cbe 3d8c b4bd b12d ec3e 94db 193f
00000260: 38ab 0f3f a5fb ba3e ef47 3f3f 98b8 883d
00000270: 929b 0d3e 6bf9 1dbe 6379 353e f218 d83e
00000280: acaf 33bf b701 113d efe5 a73e fd91 893e
00000290: e030 353f eaa0 25be 2741 a2be 7801 3e3f
000002a0: 1196 053e ed2f 8fbe 3fed 2a3f d45b e83e
000002b0: 9d7d e53e b96c 683f 73f8 9f3d 9aab 273e
000002c0: aade 9b3d 5873 b8be 2e7f 0e3e 7d35 44be
000002d0: 837f b3bd ff77 a83d 7c15 86be 0780 f33c
000002e0: f6ff 96be 3479 863d 5495 b63c 79ec 023d
000002f0: 3e4f 92bd b526 0f3d 215a c5bc f7ff 343d
00000300: f9b5 003d 3da5 95be 583c 723f 1c4b 7dbf
00000310: 41d6 88be 250d c4bc 1ba4 8d3f b33b e3ba
00000320: de37 a93f f35f ffbc ae4f 2d3d 38c0 d03d
00000330: 519f 74bf e2d7 ae3e 79a1 ccbc 1aa2 81bf
00000340: 96d5 2a3e 1b39 89be c484 15bf 024d d9bd
00000350: ff0b 43be 0c19 02be e0fa b73e ea33 22bf
00000360: 5986 e43e de84 0f3f 6544 043f 9e0d a73c
00000370: 16e1 39be 6d4d 243f b570 a43e fce3 1b3f
00000380: 81d4 f73c a738 4ebf 4de5 d03e d569 a3be
00000390: 0dab fa3e 2316 83bd b065 ad3e 8cb6 8cbc
000003a0: 66c4 193e 4165 5e3e d125 40ba 8765 733e
000003b0: 7980 683f a037 7dbe 86e5 ae3c fd10 3dbe
000003c0: 1f46 4c3f ff42 7e3d 8960 023f 842c 96bf
000003d0: 461e 803e 1471 f13e 9a6a 0f3e 4410 9d3e
000003e0: b03c 97bd 1dde 18be af96 d2bd 466e d53e
000003f0: 805c 963e d7ae bdbd 6096 3c3f 8fdb a6bd

e1.bias f4 [165]
0.50837886 -0.30955067 0.47767478 0.55159944 0.17999259 0.78769475 0.9214814 0.30160764
0.26110438 0.35426843 0.49631065 1.0775617 0.0067788013 0.5264524 0.87512845 0.90143347
0.56623626 0.79007506 0.16882117 -0.16214693 0.5872862 0.7812601 0.692359 0.5676156
0.34632862 0.24122965 -0.118960455 -0.04722111 0.7650381 0.3480003 0.41593432 0.18523438
0.16194567 0.024847142 0.44682392 0.3896399 1.0829672 -0.21569172 -0.06397578 0.17372964
0.1739202 0.5219411 0.46711746 0.13421404 0.79924953 -0.35139075 0.26970276 -0.012138261
0.56681216 0.7586555 0.054883692 0.4264187 0.70011353 0.23263027 -0.18511352 0.23493756
0.051419716 0.008252605 0.42568985 0.09434398 -0.019223347 0.25819352 -0.09373709 -0.2765338
-0.2434215 0.5006937 0.6583512 0.30107352 0.14254282 0.42002463 -0.28803536 0.04610636
0.40648097 0.50524217 -0.19657375 0.6727457 0.058720954 0.29687145 0.37862927 0.52158636
0.27162182 0.7048729 0.021908121 0.40231687 0.020205554 0.58990675 0.6402069 0.23511563
0.2542463 0.22624633 0.11426416 0.24869904 -0.34761044 0.9928783 0.2012999 0.04098789
0.374652 -0.30124816 0.26226258 -0.40744555 0.80869144 0.31249952 0.6089116 0.11605544
1.1658319 0.35972294 0.41562065 0.059586093 -0.25539955 -0.6901066 0.5792979 0.02523901
0.50725186 0.84398913 0.39907533 0.60282177 0.53776145 -0.13069762 -0.026552329 0.74323153
0.22101933 0.33997282 -0.23795034 0.011350214 0.15810727 0.39289054 0.45497727 1.2441316
0.2668313 0.1667112 0.39288002 0.68434757 1.2681152 0.47825915 0.8272778 0.20560753
0.8407809 0.52487123 -0.11109237 0.21212119 0.7663864 0.74562037 0.47696579 -0.122119315
0.8029962 -0.14733924 0.5701543 0.5993004 -0.33927912 0.1764573 1.2192749 0.35301256
0.4736832 0.0483995 0.3189717 -0.20734261 -0.033399135 0.4065026 -0.064493485 1.2050576
0.021440752 0.57491195 -0.1267464 -0.0031127657 0.6690823
00000000: 1e25 023f 6d7d 9ebe ca91 f43e 9f35 0d3f
00000010: fa4f 383e 5da6 493f 34e6 6b3f 516c 9a3e
00000020: 79af 853e ac62 b53e 6e1c fe3e 8bed 893f
00000030: b520 de3b 96c5 063f 6b08 603f 58c4 663f
00000040: dcf4 103f 5c42 4a3f 75df 2c3e d809 26be
00000050: 6358 163f a900 483f 703e 313f 424f 113f
00000060: fc51 b13e e804 773e 8aa1 f3bd ec6a 41bd
00000070: 89d9 433f 182d b23e 58f5 d43e 15ae 3d3e
00000080: 16d5 253e 3c8c cb3c 1bc6 e43e e27e c73e
00000090: ab9e 8a3f 4ade 5cbe bc05 83bd 2fe6 313e
000000a0: 2318 323e ef9d 053f 052a ef3e 686f 093e
000000b0: 9e9b 4c3f 7de9 b3be 7b16 8a3e 8fdf 46bc
000000c0: 9a1a 113f 3f37 423f b9cd 603d 8d53 da3e
000000d0: a43a 333f a136 6e3e 668e 3dbe 7993 703e
000000e0: 7b9d 523d ef35 073c 05f4 d93e 6b37 c13d
000000f0: 487a 9dbc f131 843e 3bf9 bfbd d795 8dbe
00000100: 7c43 79be 762d 003f b489 283f 4f26 9a3e
00000110: bff6 113e 780d d73e 5f79 93be 06da 3c3d
00000120: 461e d03e 8d57 013f a14a 49be 1039 2c3f
00000130: 6285 703d 89ff 973e b2db c13e af86 053f
00000140: 0412 8b3e 8d72 343f a978 b33c 7afc cd3e
00000150: 1e86 a53c 2104 173f 99e4 233f 27c2 703e
00000160: 922c 823e 1ead 673e 5403 ea3d f6aa 7e3e
00000170: fff9 b1be 462d 7e3f 9021 4e3e ebe2 273d
00000180: 63d2 bf3e 333d 9abe 4847 863e b49c d0be
00000190: 6706 4f3f f0ff 9f3e a1e1 1b3f 79ae ed3d
000001a0: fb39 953f 9b2d b83e 3bcc d43e 8c10 743d
000001b0: bbc3 82be d3aa 30bf de4c 143f 0ac2 ce3c
000001c0: 42db 013f ac0f 583f 9a53 cc3e 8752 1a3f
000001d0: bcaa 093f 99d5 05be 4584 d9bc 6c44 3e3f
000001e0: e452 623e eb10 ae3e 41a9 73be 3ff6 393c
000001f0: dfe6 213e f328 c93e c8f2 e83e b43f 9f3f
00000200: 1d9e 883e 57b6 2a3e 9227 c93e 6731 2f3f
00000210: 9951 a23f 62de f43e 7ac8 533f c88a 523e
00000220: 6b3d 573f f65d 063f 6584 e3bd 4c36 593e
00000230: e631 443f fae0 3e3f dc34 f43e b119 fabd
00000240: 2991 4d3f 19e0 16be a2f5 113f c06b 193f
00000250: feb5 adbe 39b1 343e 3311 9c3f 10be b43e
00000260: 9b86 f23e 8e3e 463d 4250 a33e 9f51 54be
00000270: 88cd 08bd 1c21 d03e 2915 84bd 543f 9a3f
00000280: 84a4 af3c 6e2d 133f cfc9 01be 8bff 4bbb
00000290: fa48 2b3f

output_layer.weight f4 [104, 165]
-0.071843386 -0.14695267 -0.10035582 -0.085477516 -0.07781199 -0.1526579 -0.04920173 -0.039693527
-0.053607855 -0.115270674 -0.07015217 -0.047339678 -0.09494192 -0.1494628 -0.16032283 -0.06844995
-0.057215974 -0.061180804 -0.0556413 -0.10186915 -0.16400984 -0.10992267 -0.11443044 -0.021168059
-0.13622043 -0.030344693 -0.028940093 -0.049485937 -0.004101886 -0.015495178 -0.12511085 -0.11343562
-0.09952477 -0.12082639 -0.08619579 -0.110902935 -0.1197716 -0.0819706 -0.06775938 -0.10363347
0.00044414314 -0.08432053 -0.0062218388 -0.08475132 -0.012701791 -0.033797618 -0.1139185 -0.15533689
-0.0843042 -0.021258898 -0.1561235 -0.07489405 -0.051110853 -0.08303813 -0.14079279 -0.115783334
-0.08015623 -0.09742573 -0.09101302 -0.039817862 -0.14588559 -0.09620294 -0.12548447 -0.1042588
-0.17133087 -0.15926982 -0.007936529 -0.1306311 -0.16147661 -0.06292034 -0.05017755 -0.10109306
-0.074663214 -0.065620705 -0.046124674 0.031219369 -0.100655034 -0.047600042 -0.041030098 0.030121453
-0.0578717 -0.07600475 -0.006523454 -0.118202254 -0.095111854 -0.045208853 -0.062303353 -0.0055059465
0.02603357 -0.051869445 -0.07580482 -0.09177824 -0.090491936 -0.003912235 -0.09235779 -0.0513704
-0.065286756 0.016881308 -0.010949351 -0.17192623 -0.05595228 -0.16050705 -0.07916744 -0.051563874
-0.011181153 -0.056099173 -0.06537623 -0.099335134 -0.019854624 -0.050987933 -0.1079417 -0.058514405
-0.08978179 -0.16329432 -0.09555597 -0.008209318 -0.11715421 -0.15345916 -0.021863753 -0.019714283
-0.103733785 -0.015045254 -0.022290887 -0.0858093 0.0061759977 -0.07735315 -0.14592952 -0.024368241
-0.15288733 -0.0700247 -0.09806779 -0.050208375 -0.052992187 -0.046195876 -0.15562755 -0.039682765
-0.042079773 -0.022277266 -0.023077229 -0.09307168 -0.0027463115 -0.11942595 -0.05387512 -0.06577662
-0.01756532 -0.032132927 -0.12571897 -0.05125299 -0.01704973 -0.14046347 0.061219804 -0.10807622
-0.0912836 -0.084092885 -0.1291979 0.015308391 -0.08135864 -0.045651414 -0.043890256 -0.15459442
-0.04268416 -0.041842904 -0.103191465 -0.097700685 -0.14057559 -0.1479139 -0.013096877 -0.3680995
0.41794875 -0.7380652 -0.3903809 0.44737506 -0.32868052 0.16581367 -0.18747915 0.18785034
0.020754522 0.2969299 -0.5666586 0.3102473 -0.26352647 0.23479919 -0.20094557 0.19670199
-0.111833796 0.8348347 0.13644959 -0.44231308 0.0063494677 -0.083046965 0.36109838 -0.022465352
0.43203652 0.15205652 -0.35477188 0.07780501 0.4757413 0.44651663 0.4756324 0.21279573
-0.3334301 -0.25388667 -0.68913984 -0.33918697 -0.4547712 0.3462174 -1.2444813 0.21587227
-0.097570464 -0.008530538 -0.7017559 -0.009396047 -0.15524583 -0.43876776 -0.13951854 0.3437543
0.5747527 0.22963692 0.3307762 -0.5463348 0.07018577 0.34388176 0.15307096 0.26099885
-0.9254053 0.4420093 -0.05710914 -0.036029723 -0.15879747 -0.90953237 0.5027403 -0.00062680675
-0.88509154 0.5659412 0.4814802 0.02057176 0.5369157 0.20412314 0.20030068 0.13908458
-0.31761593 0.50538516 -0.53462243 -0.0105329715 -0.67576414 0.32952946 0.11790797 0.2599547
0.73338616 0.47252417 0.05915458 0.14624341 0.17736557 -0.7010285 0.2721881 -0.20483005
00000000: a022 93bd c37a 16be 5a87 cdbd d60e afbd
00000010: e55b 9fbd 5a52 1cbe c187 49bd ae95 22bd
00000020: e993 5bbd 0813 ecbd f1ab 8fbd 40e7 41bd
00000030: e970 c2bd c70c 19be ab2b 24be 7d2f 8cbd
00000040: 4c5b 6abd b998 7abd 22e8 63bd c6a0 d0bd
00000050: 32f2 27be 231f e1bd 825a eabd a368 adbc
00000060: 5e7d 0bbe 6f95 f8bc c613 edbc c4b1 4abd
00000070: 1d69 86bb 7ddf 7dbc 0f1d 00be ef50 e8bd
00000080: a5d3 cbbd d473 f7bd 6b87 b0bd 1421 e3bd
00000090: d04a f5bd 34e0 a7bd 6ec5 8abd c93d d4bd
000000a0: e2db e839 3eb0 acbd 91e0 cbbb 1a92 adbd
000000b0: 2c1b 50bc 5f6f 0abd 1a4e e9bd a210 1fbe
000000c0: aea7 acbd 2427 aebc d7de 1fbe 0d62 99bd
000000d0: 9d59 51bd e50f aabd fc2b 10be d01f edbd
000000e0: f328 a4bd 2487 c7bd 0965 babd 0e18 23bd
000000f0: 0863 15be 0c06 c5bd 007f 00be a385 d5bd
00000100: 5c71 2fbe a117 23be 3708 02bc 29c4 05be
00000110: 205a 25be 61dc 80bd fa86 4dbd e109 cfbd
00000120: 07e9 98bd 2664 86bd 3aed 3cbd c3bf ff3c
00000130: 3a24 cebd 43f8 42bd 2d0f 28bd 44c1 f63c
00000140: e00a 6dbd 61a8 9bbd b3c2 d5bb 0614 f2bd
00000150: 01ca c2bd eb2c 39bd cd31 7fbd 3a6b b4bb
00000160: 5a44 d53c 0e75 54bd 8f3f 9bbd 3bf6 bbbd
00000170: d653 b9bd 3532 80bb 1526 bdbd c569 52bd
00000180: 10b5 85bd ab4a 8a3c e864 33bc 6e0d 30be
00000190: 382e 65bd f65b 24be 8a22 a2bd a434 53bd
000001a0: 2831 37bc 3fc8 65bd f9e3 85bd 3870 cbbd
000001b0: 2aa6 a2bc b9d8 50bd 8a10 ddbd cdac 6fbd
000001c0: 84df b7bd a036 27be d9b2 c3bd 6080 06bc
000001d0: 8cee efbd 6624 1dbe 9d1b b3bc d97f a1bc
000001e0: 6172 d4bd 5e80 76bc 619b b6bc c9bc afbd
000001f0: 0660 ca3b 546b 9ebd 8c6e 15be e89f c7bc
00000200: 7f8e 1cbe 1c69 8fbd c4d7 c8bd 4ca7 4dbd
00000210: 560e 59bd e337 3dbd d45c 1fbe 658a 22bd
00000220: d75b 2cbd d07e b6bc 750c bdbc 5d9c bebd
00000230: 76fb 33bb 9895 f4bd 28ac 5cbd e4b5 86bd
00000240: 25e5 8fbc d19d 03bd 79bc 00be a8ee 51bd
00000250: e0ab 8bbc a8d5 0fbe 9ec1 7a3d 1157 ddbd
00000260: e5f2 babd e438 acbd 744c 04be 0cd0 7a3c
00000270: 5c9f a6bd fafc 3abd 45c6 33bd 004e 1ebe
00000280: 96d5 2ebd 7763 2bbd 0c56 d3bd 4c17 c8bd
00000290: 0cf3 0fbe be76 17be 4994 56bc 8a77 bcbe
000002a0: 61fd d53e d7f1 3cbf 01e0 c7be 580e e53e
000002b0: d048 a8be 0fcb 293e 89fa 3fbe d75b 403e
000002c0: 6305 aa3c 3207 983e 8a10 11bf bcd8 9e3e
000002d0: f1ec 86be 336f 703e adc4 4dbe 3f6c 493e
000002e0: 1e09 e5bd bab7 553f 71b9 0b3e dc76 e2be
000002f0: 320f d03b 8714 aabd e3e1 b83e 4209 b8bc
00000300: e433 dd3e b4b4 1b3e a9a4 b5be 3c58 9f3d
00000310: 5d94 f33e d49d e43e 1786 f33e 20e7 593e
00000320: 5ab7 aabe 6ffd 81be 786b 30bf eaa9 adbe
00000330: c5d7 e8be 6843 b13e 2a4b 9fbf 9f0d 5d3e
00000340: 06d3 c7bd abc3 0bbc 46a6 33bf e1f1 19bc
00000350: c3f8 1ebe 2ba6 e0be f3dd 0ebe 9000 b03e
00000360: fe22 133f f125 6b3e 805b a93e 99dc 0bbf
00000370: 8fbd 8f3d 4511 b03e a2be 1c3e a4a1 853e
00000380: 5de7 6cbf 0b4f e23e 46eb 69bd e793 13bd
00000390: ce9b 22be 1dd7 68bf 97b3 003f 4a50 24ba
000003a0: 5c95 62bf 86e1 103f 9384 f63e 1c86 a83c
000003b0: 4f73 093f a805 513e 9f1b 4d3e 306c 0e3e
000003c0: 8e9e a2be ec60 013f 04dd 08bf 7c92 2cbc
000003d0: e1fe 2cbf 16b8 a83e bc79 f13d c818 853e
000003e0: 32bf 3b3f b0ee f13e 134c 723d d5c0 153e
000003f0: 529f 353e 9b76 33bf 3d5c 8b3e f8be 51be

output_layer.bias f4 [104]
-0.035760503 -0.2692474 -0.19555649 -0.32430267 -0.39253405 -0.51245487 -0.25875524 -0.3639005
-0.36362022 -0.26502627 -0.50769615 -0.5529011 -0.41879693 -0.4315335 -0.7962067 0.12721181
-0.22252187 -0.15809362 -0.26334208 -0.2986835 -0.24303927 -0.33411956 -0.29600528 -0.3701146
-0.23577714 -0.24727356 -0.36406633 -0.6038254 -0.35763183 -0.11327105 -0.13363338 -0.1671792
-0.38091707 -0.27977097 -0.44907025 -0.30628988 -0.44680884 -0.31417894 -0.42097777 -0.48875457
-0.48947117 -0.49569932 -0.5809984 -0.69864875 -0.47253102 -0.08222261 -0.1988844 -0.283099
-0.22707468 -0.43692058 -0.22492115 -0.32693776 -0.32933414 -0.5043409 -0.37643647 -0.33749092
-0.20829174 -0.4026536 -0.39997548 -0.013651749 -0.15636349 -0.24661072 -0.31698394 -0.24276266
-0.35925692 -0.39712527 -0.2994503 -0.31756738 -0.41361082 -0.5676102 -0.49565205 -0.5641926
-0.47604573 -0.42772123 -0.62851787 -0.13261092 -0.04968333 -0.1690283 0.0004095303 -0.029508071
-0.025548507 -0.047218587 -0.10251107 -0.05203043 -0.044935975 -0.118355 -0.11989418 -0.08140694
-0.11179513 0.38145643 -0.29352725 0.19745587 -0.040472634 -0.15307708 0.008449483 -0.13353728
-0.10047387 -0.10576984 -0.0699493 -0.044094443 0.15112469 -0.48303148 -0.04974001 -0.114781745
00000000: 9b79 12bd ccda 89be f63f 48be 000b a6be
00000010: 39fa c8be 3e30 03bf 917b 84be 2b51 babe
00000020: 6e2c babe 86b1 87be 60f8 01bf ed8a 0dbf
00000030: 8d6c d6be f5f1 dcbe 34d4 4bbf d043 023e
00000040: c6dc 63be 4be3 21be c6d4 86be 0bed 98be
00000050: 49df 78be b811 abbe 018e 97be a97f bdbe
00000060: 906f 71be 4835 7dbe e766 babe 4d94 1abf
00000070: 851b b7be a7fa e7bd 30d7 08be 0631 2bbe
00000080: 9007 c3be 243e 8fbe 89ec e5be 07d2 9cbe
00000090: 21c4 e4be 10dc a0be 668a d7be 0a3e fabe
000000a0: f79b fabe 4dcc fdbe 50bc 14bf a5da 32bf
000000b0: 96ef f1be 5464 a8bd 5aa8 4bbe 5af2 90be
000000c0: 4486 68be 0eb4 dfbe bb51 66be 6364 a7be
000000d0: 7c9e a8be 7c1c 01bf 48bc c0be 9ccb acbe
000000e0: 6e4a 55be 9d28 cebe 96c9 ccbe 96ab 5fbc
000000f0: c01d 20be 8587 7cbe b84b a2be c696 78be
00000100: 86f0 b7be 0154 cbbe 8d51 99be 3198 a2be
00000110: ccc4 d3be e74e 11bf 1bc6 fdbe ed6e 10bf
00000120: 44bc f3be 47fe dabe 8ce6 20bf 28cb 07be
00000130: bf80 4bbd c115 2dbe 3ab6 d639 e9ba f1bc
00000140: 1a4b d1bc 4768 41bd 53f1 d1bd dc1d 55bd
00000150: c90e 38bd 1b64 f2bd 148b f5bd afb8 a6bd
00000160: d8f4 e4bd 424e c33e 3449 96be df31 4a3e
00000170: a2c6 25bd 3dc0 1cbe b36f 0a3c ffbd 08be
00000180: 3fc5 cdbd dc9d d8bd 9441 8fbd 609c 34bd
00000190: 6ec0 1a3e e74f f7be 2ebc 4bbd b112 ebbd
