models/unknown.pth (torch, 139871 bytes, 4 tensors)

e1.weight f4 [165, 104]
000000 11 ed 2f 3d 29 75 12 bf 9a 67 a2 3d 6a 1d b3 be
       0.042950694 -0.5721002 0.07929917 -0.3498338
000010 7e d7 80 3e d2 e2 93 bd 74 0a 89 be 95 4e 25 be
       0.25164407 -0.07220997 -0.26765788 -0.16143258
000020 6c 69 43 3e 98 fe fd bc 1c 06 e0 bd 6c 19 0f bc
       0.19083184 -0.031005189 -0.10938665 -0.008734088
000030 24 0d 06 3f d7 3b 3e bc 77 74 53 bd e8 63 16 3e
       0.523638 -0.011610947 -0.05162474 0.14686549
000040 34 f1 b5 3e 05 32 9d be f4 6b 85 be a4 07 6c 3e
       0.35535586 -0.30702224 -0.26058924 0.2304979
000050 2a 46 3d bf ec 27 04 3e d1 87 f4 be c6 9e f0 3d
       -0.73935187 0.12905854 -0.4775987 0.11749034
000060 49 03 10 bd 24 30 ae 3d 71 3b 53 3f ea d0 9d be
       -0.035159383 0.08505276 0.82512575 -0.3082345
000070 af 00 ac be 8c 8d 82 be b4 f2 41 3e 67 a8 8b be
       -0.33594272 -0.25498617 0.1894024 -0.27276918
000080 48 ff 97 be 05 35 48 3e 64 75 21 3d 9c 39 a4 be
       -0.29686952 0.19551475 0.039418593 -0.32075202
000090 20 54 94 3e 20 43 67 bd 0e 3d e2 bc 5b ae 1e bd
       0.28970432 -0.0564605 -0.027617004 -0.038740497
0000a0 2e 88 19 3e da dd e3 3e e0 53 f4 3e 03 8a cb be
       0.14993355 0.44505197 0.47720242 -0.39753732
0000b0 f3 e2 a3 3e 30 eb 3d be 5e 4c 3c 3f 71 36 e9 be
       0.32009086 -0.18546748 0.7355403 -0.45549348
0000c0 4d 79 6b 3f 5f 24 ac 3e 9e 90 69 be a6 fb 8c 3b
       0.91981965 0.336215 -0.22809073 0.00430246
0000d0 5e f0 17 be ab 36 cc 3e 5d fc 34 3d 96 c1 e2 3e
       -0.14837787 0.39885458 0.044185985 0.4428832
0000e0 f5 01 12 3f ea 7d bb be 4e 5a 40 3e c7 87 da 3e
       0.57034236 -0.36619502 0.18784449 0.42681715
0000f0 a8 79 77 3e 2c 39 fe be 11 43 d5 3d 43 ff e3 be
       0.24167502 -0.49652994 0.104131825 -0.44530687
000100 18 47 b0 be ee 1d 52 bd 93 82 0c 3f 73 c8 8d be
       -0.3442924 -0.051298074 0.5488674 -0.27691993
000110 7c 16 6c 3e cb 11 1c 3e 95 03 09 3f 5e 5b 97 3e
       0.23055452 0.15241162 0.5352109 0.29561895
000120 bc a8 3e 3e fb 6a e8 3c e3 ce b0 3d 3c 9c 6f bd
       0.18619055 0.028371325 0.086332105 -0.058498606
000130 71 6b 62 bc c5 fe 48 3d d3 be 48 bd 57 85 4c 3e
       -0.013819561 0.049071092 -0.04901011 0.1997274
000140 a2 a2 a9 3d 3f 03 97 3d f2 49 b4 bc cc 2c 4c bd
       0.08282973 0.07373666 -0.022007916 -0.04984741
000150 41 2a bc bd 29 43 c3 3c 79 aa e2 bc 4a 7b 78 3f
       -0.09187747 0.023835735 -0.027669178 0.97063124
000160 60 5f 73 bd 0e 64 a2 3d f8 8c 69 3f e7 64 9e be
       -0.05941713 0.0792924 0.91230726 -0.30936357
000170 b9 93 81 3e e1 99 56 bd 75 20 ae 3f 60 97 6d 3c
       0.25308016 -0.052392844 1.3603655 0.014501423
000180 02 47 be 3e 85 8e 08 bb 4a c7 6c 3d 17 41 a8 bd
       0.3716355 -0.0020836901 0.057807244 -0.0821554
000190 dd cc d2 be 72 39 7e be 50 17 7b be fb e2 b5 be
       -0.41171923 -0.24826601 -0.24520612 -0.35524735
0001a0 63 ed 13 3d da ee 49 3f f1 72 04 3e 7e 7a c7 3e
       0.03611506 0.78880084 0.12934472 0.38960642
0001b0 42 90 d8 3e cc 60 a5 3e d3 45 d7 3d c1 6b 0c 3e
       0.4229756 0.32300413 0.10511365 0.1371298
0001c0 ed 56 3f 3e 2a cd 67 3e 78 87 3f bd 85 cc f8 bd
       0.18685503 0.22636858 -0.046760052 -0.12148384
0001d0 ab cf 71 3e 17 a4 86 3e 05 ce 2d bd 23 f3 d1 3d
       0.23614375 0.26297066 -0.042432804 0.10251453
0001e0 4c 3c f8 3e 45 48 b3 3e 3c 18 26 bf 69 15 18 3f
       0.48483503 0.35016075 -0.6488073 0.5940767
0001f0 46 21 5a 3e 68 41 80 be 76 07 8c 3f 03 ea 89 3f
       0.21301755 -0.250499 1.0939777 1.077454
000200 49 08 99 3e cd 9f 8a be ba 5e 1a bf 83 09 09 bf
       0.29889134 -0.27075043 -0.6030079 -0.5353014
000210 b0 ec 35 be e3 46 af be d7 ba 4b 3f 42 60 a2 3e
       -0.1776607 -0.3423377 0.7958197 0.31714064
000220 72 e9 c6 3e 8b cf 69 3e 98 21 ef 3e 5e 06 00 3e
       0.3884998 0.22833078 0.46705317 0.12502429
000230 a4 1f 5b 3f f9 57 3c bc fc 23 2e be fd 5c a8 3e
       0.85595155 -0.011495584 -0.17005914 0.32883444
000240 d8 6e d7 3e 1f 69 2f 3e 32 cc 25 3f 83 64 57 be
       0.42076755 0.17129944 0.647647 -0.21034436
000250 51 bf 31 3e 8e c8 80 bc b1 3b 29 3f 31 8d 57 3e
       0.17358138 -0.015720632 0.66106707 0.21049954
000260 c8 8c 15 3b 2f f4 e6 bc 01 12 e3 bd 8d 76 21 3e
       0.0022819508 -0.028192608 -0.11087418 0.1576788
000270 2f 60 e0 be 4a e8 03 bf 07 64 eb be 80 65 3f 3f
       -0.43823382 -0.5152632 -0.45974752 0.7476425
000280 93 aa 05 be ea f1 09 bf 73 43 07 bf a8 1d 13 be
       -0.1305335 -0.53884757 -0.52837294 -0.14366782
000290 ee a1 a0 3e f1 63 48 3d 8a 7c cf 3e 3c c3 b2 be
       0.31373543 0.048923437 0.40524703 -0.34914577
0002a0 01 b2 65 be ad d4 1c 3d 57 34 c6 3d 62 8d 0a 3f
       -0.22431184 0.03828876 0.09677952 0.54121983
0002b0 fb ad 61 bd ee 0f 90 be fa 16 87 be 6f 89 2d 3f
       -0.05509756 -0.28137153 -0.26384717 0.6778783
0002c0 8f 87 a6 3e 7a 71 3b 3e 39 3c e5 3e 8f 40 82 3c
       0.32525298 0.18305007 0.4477251 0.015899925
0002d0 16 2b 81 3d 02 53 59 3d b3 7c 27 3d 41 d6 81 3d
       0.06307046 0.053057678 0.040890407 0.06339694
0002e0 bf 42 c4 3b 1b e7 aa 3c 06 1e b8 bd 1b 28 b1 bc
       0.005989402 0.020862153 -0.089901015 -0.02162557
0002f0 09 59 4c 3d cc e5 c4 3d 3e 30 4e bd b8 51 92 3e
       0.049889598 0.09614143 -0.050338976 0.2857797
000300 f1 45 86 3e e6 16 7f 3d d5 b5 52 3d 15 04 b1 be
       0.26225236 0.062277697 0.05144294 -0.34573427
000310 7c 69 a7 be 35 cc c8 bd 7a 56 61 3f 2a 81 09 be
       -0.32697666 -0.098045744 0.8802258 -0.13428178
000320 49 19 de 3d e6 18 04 3f 06 a8 43 3d b6 1c 41 bd
       0.108446665 0.5160049 0.04776766 -0.04714652
000330 97 9c 11 bf 97 3c f9 bd a7 cf c4 3e 27 cf ac 3e
       -0.5687956 -0.1216976 0.38439676 0.33751795
000340 53 08 30 3d dc c2 03 3e 24 3f fb 3b 2f 26 3c bf
       0.04297669 0.12867302 0.007667439 -0.73495764
000350 8b c8 9a 3d b0 f2 08 be d6 f9 ab 3d d2 c5 95 be
       0.07557782 -0.13373828 0.08397262 -0.29252487
000360 01 ff 66 3e 97 70 22 3f 08 63 5f 3e f0 45 3e be
       0.22558214 0.6345305 0.21815121 -0.18581367
000370 26 77 b5 3e 2f e9 7f 3e 6f 62 a8 be 8e d7 d7 bc
       0.35442466 0.24991296 -0.328876 -0.026347902
000380 9d 51 d8 3e 7e 89 7d be 35 e6 bd bd 40 77 61 3f
       0.42249766 -0.2475948 -0.09272424 0.88072586
000390 aa 33 3b be 44 1d 37 3e f9 e2 66 3f 09 a4 6b be
       -0.18281427 0.17882258 0.9019008 -0.23011793
0003a0 88 f5 5f be 2f cd 11 3f d4 75 d2 bd 95 aa 12 3f
       -0.21871006 0.5695371 -0.1027638 0.5729154
0003b0 f7 8a b4 3e c7 de 7c 3d 95 6d 68 3f c5 5b ed 3a
       0.35262272 0.061735895 0.9079221 0.0018109014
0003c0 24 a0 03 be c7 28 5c 3d 15 a4 52 be b5 87 82 be
       -0.12854058 0.053749826 -0.20570405 -0.2549416
0003d0 56 7f 80 3e 39 d9 42 3e db 71 97 3e 7f c9 52 bd
       0.2509715 0.19028176 0.29579052 -0.051461693
0003e0 3e 93 7f be 8e 6e 0e 3f 38 e3 0f 3e ae d4 ec be
       -0.24958512 0.55637443 0.14051521 -0.46256012
0003f0 40 e1 aa 3e cf 8d e0 bd f0 29 02 3f fd ff 10 be
       0.33374977 -0.10964548 0.5084524 -0.14160152

e1.bias f4 [165]
000000 c6 e6 23 3e 82 4f 68 38 db 9b 7d 3d 8e 6f df 3d
       0.16006002 5.5387158e-05 0.061916213 0.10909949
000010 f9 0a 84 3e fd c3 f0 3e 55 e0 35 3d 51 36 4a 3e
       0.2578962 0.47024527 0.044403393 0.19747283
000020 80 84 d2 3d 11 b3 19 3e 08 06 b6 3e bb f2 d6 ba
       0.102791786 0.15009715 0.35551476 -0.0016399244
000030 e3 29 a6 3e 47 1b 91 bc 55 c2 12 3d c5 66 a0 3d
       0.32453832 -0.017713202 0.03582986 0.07832102
000040 cb a2 2f 3e 6e fd c4 3d d0 ba ed 3d 4d e7 17 3f
       0.17151944 0.096186504 0.11607897 0.5933731
000050 2b dd 6c 3d 3f 57 41 3e d3 fe f3 3e bb f0 b6 3e
       0.05782811 0.18880938 0.47655353 0.35730538
000060 ea 55 a9 3d c7 5e e9 3e 4e 29 0d 3f 56 c1 d4 3e
       0.0826834 0.45580122 0.5514115 0.41553754
000070 9c fd 62 3e f5 87 9a 3c 0d 02 5d 3e af fb 93 3e
       0.22167057 0.018863657 0.21582814 0.28902957
000080 f8 e9 a2 3d 74 37 c2 3e 0c bd 82 3c e3 25 b1 bc
       0.07954782 0.37932932 0.015959285 -0.021624511
000090 ae 86 cb 3d 8b dd cc 3d d2 90 6c be 1e d2 a5 3d
       0.099377975 0.100031935 -0.2310212 0.08096717
0000a0 a2 d7 95 3e 79 19 1a 3f 51 44 76 3e 0b 36 73 3e
       0.29266077 0.6019512 0.24049498 0.23751085
0000b0 c5 81 c6 3e 74 12 41 3d f1 77 88 bc 3d e0 02 3e
       0.3877088 0.04713674 -0.016658755 0.12780853
0000c0 ea 98 71 3d 38 0e 51 3f 41 4f 45 3e a7 a9 1f 3e
       0.05898372 0.8166232 0.19268514 0.15592061
0000d0 06 46 1d 3f b1 ba 52 3e 71 aa e9 bd 9c 48 45 3e
       0.6143497 0.2057903 -0.11409462 0.1926598
0000e0 77 9b 36 be fd 58 28 3c 79 82 c8 3e 93 62 33 3f
       -0.17832743 0.010275123 0.39162043 0.7007229
0000f0 f1 cc e0 3e be 24 f9 3e 54 77 80 3e 5f 77 73 3e
       0.43906358 0.48660845 0.2509104 0.23776005
000100 08 e9 a8 3e 4f a8 f6 bc 09 82 03 3e 2e eb f8 3d
       0.3299029 -0.030109553 0.12842573 0.12154232
000110 bb 22 77 be ca 91 3a 3e 9b 2e bb 3e 61 e9 55 3e
       -0.24134342 0.18219677 0.36558995 0.20889808
000120 74 8f 98 bd 7d 69 16 3c c7 1a 9d ba 2b c5 7e 3e
       -0.074492365 0.009180424 -0.001198613 0.24879901
000130 fd 98 12 3f 29 ee ac 3e aa 90 de 3e 41 b9 c9 be
       0.5726469 0.33775452 0.43469745 -0.3939915
000140 3c c6 2a 3d f8 cb 01 3f 39 fd 8c 3d 99 c8 30 3e
       0.041692957 0.50701857 0.06884236 0.17264022
000150 08 ed 8e 3e 73 d8 94 3e 22 c9 72 bc b9 60 87 3e
       0.27915215 0.29071388 -0.014818462 0.2644098
000160 0a 98 c1 3e d7 46 e8 3e 24 fa 2e 3d b1 bb ab 3e
       0.3781131 0.45366547 0.04271902 0.33541635
000170 42 59 d7 3e 72 9d 5d 3e cd 79 2b 3f 22 30 c3 3e
       0.42060286 0.21642092 0.6698273 0.3812266
000180 86 e2 ab 3e 0c d5 b2 bd aa 87 ba 3d da 2e 59 3e
       0.3357126 -0.08732042 0.09107907 0.21209279
000190 24 d9 63 be 50 7c f0 3e a4 1c bf bd a1 c0 fd 3b
       -0.22250801 0.46969843 -0.09331635 0.0077439104
0001a0 dc c4 79 3e a1 79 ba 3d ee 15 23 3f 7e 42 f8 bd
       0.24391502 0.0910523 0.6370534 -0.121220574
0001b0 a0 41 bf 3e c0 ac 47 3e fa 9f 75 3c d7 ce a2 3e
       0.37354755 0.19499493 0.014991755 0.3179843
0001c0 bb 38 97 bc 7a 9a 31 3f 45 64 c3 3d 7a fc 84 3e
       -0.018459668 0.6937634 0.09540609 0.25973874
0001d0 23 35 8b 3e 3b 29 28 bd 50 8e c7 3d 3e eb 07 be
       0.27188978 -0.041054945 0.09743941 -0.13273332
0001e0 0c 86 f9 3d cc 8c 5d 3e 8f 1b 3e 3e 60 00 0e 3f
       0.121837705 0.21635741 0.185652 0.5546932
0001f0 1d 87 f6 3e d0 8b a5 3d 62 fd 47 3e d3 41 62 3e
       0.48149958 0.08083308 0.19530252 0.22095422
000200 40 8f 41 bd 45 8d 96 3e fd 37 97 3e 2c f6 dd 3e
       -0.047255754 0.29404655 0.29534903 0.43351877
000210 a9 52 dd be 7d bc 67 3e 4c c8 00 3f bf c0 ca bc
       -0.43227127 0.22630496 0.5030563 -0.024750112
000220 9e 39 4b 3e 95 6e 51 3e dc 82 18 3e 03 82 67 3e
       0.19846198 0.2045234 0.14893669 0.2260819
000230 28 63 26 3f 76 7f 28 3e 18 46 65 3e d4 5f 55 3e
       0.6499505 0.16454872 0.2239002 0.20837337
000240 16 d9 fc 3e 08 a8 8e 3e 3a b5 19 3e 5f 00 08 3f
       0.49384373 0.27862573 0.15010539 0.53125566
000250 e1 9b 69 3e b8 a2 b0 3e fc 1b c7 3e 05 a1 e8 3d
       0.2281337 0.34499145 0.38888538 0.11358837
000260 55 27 dc 3d 9b d6 cb 3d 33 54 c0 bd 3f fd 5f 3e
       0.107496895 0.09953042 -0.0939106 0.2187395
000270 cc d7 ee 3d 9d b7 c4 3e 28 f8 85 3e 73 e7 22 3e
       0.11662254 0.38421336 0.2616589 0.15908603
000280 81 5a 0a 3f 1b fb 5c 3d 10 c4 d8 3e 27 62 50 bd
       0.5404435 0.05395041 0.42337084 -0.050874855
000290 1a 99 0b 3e
       0.13632622

output_layer.weight f4 [104, 165]
000000 f6 6c 9b bd 2d e2 96 bd 6b 9e f9 bd 79 e8 8d bc
       -0.07589142 -0.07367358 -0.12188419 -0.017322766
000010 fd 1b 92 bd 9a 71 04 be b5 f7 03 be 18 59 07 be
       -0.071342446 -0.1293396 -0.12887461 -0.1321758
000020 5b f8 86 bd 73 74 94 bd 2d f0 f9 bd f6 33 bc bd
       -0.06590339 -0.072487734 -0.12204013 -0.09189598
000030 d1 ce 20 bd 88 df 23 be 7d 32 84 bd 79 97 4f bc
       -0.039259735 -0.16003239 -0.064549424 -0.012670391
000040 45 e3 9b bd 4e 5f 88 bd ac c9 92 bd b2 df a0 3b
       -0.076117076 -0.06658803 -0.07167372 0.004909479
000050 0f be 02 be c5 83 ef bd d5 80 03 be e8 e1 f5 bd
       -0.12767814 -0.11695055 -0.12842114 -0.12005979
000060 3e dd 84 bc 81 c5 29 bd 3a 86 0f be ec 51 94 bd
       -0.016218778 -0.04144812 -0.14016047 -0.07242188
000070 40 f7 b7 bd 48 21 24 be f7 1b 17 be c1 a8 96 bd
       -0.08982706 -0.16028321 -0.14756761 -0.07356406
000080 09 80 64 bd c9 5e 03 be fd f5 1b be 28 ac 6d bd
       -0.055786166 -0.12829126 -0.15230556 -0.05802551
000090 4a 19 50 bd 45 7a ca bd a5 23 f9 bc b7 ce ab bc
       -0.050805368 -0.09886602 -0.030412504 -0.020972593
0000a0 63 4b 4d bd bf f3 c7 3c 0d a9 02 be 7a aa 81 bd
       -0.050120723 0.02440822 -0.127598 -0.06331344
0000b0 b0 9a 05 be d0 9e 02 be 3a 05 09 bd 63 b4 69 bd
       -0.1304729 -0.12755895 -0.03345225 -0.057056796
0000c0 f4 13 82 bc e0 b5 1a bd 1d 32 c4 bc 19 90 00 bd
       -0.015878655 -0.037771106 -0.023949677 -0.031387422
0000d0 61 01 53 39 84 57 f0 bc 4b 88 88 bd 4a b4 c4 bd
       0.00020123042 -0.029338606 -0.06666621 -0.096047
0000e0 5e ca 17 be f1 31 f2 bc 8a 6f 3d bd 7f 43 92 bd
       -0.1482329 -0.02956483 -0.04624895 -0.0714178
0000f0 10 e1 63 bd ec 45 f8 bd 43 2b 3f 3d fd 95 14 be
       -0.05563456 -0.121227115 0.046672117 -0.14510341
000100 a9 5f 00 be b6 78 33 bd 1b 30 b2 bd d6 5d 17 bd
       -0.12536491 -0.04381629 -0.08700582 -0.036954723
000110 2c 01 bd bd 3c 10 10 be 1b 79 47 bd 13 e1 a8 bd
       -0.09228739 -0.14068693 -0.04869948 -0.082460545
000120 13 f0 11 be 04 24 e3 bd 8c 89 41 bd c5 07 bb bd
       -0.14251737 -0.11090854 -0.047250316 -0.09132341
000130 72 54 13 bd 51 65 b8 bd 80 eb 7c bd 3e 6c f9 bd
       -0.035969205 -0.090036996 -0.061748028 -0.12178849
000140 5c f6 ed bd 53 a1 e1 bd 2e 40 01 be 4b f0 ec bd
       -0.11619255 -0.11017098 -0.12622139 -0.1156927
000150 28 af 08 bd c6 83 09 be 96 25 fc bc 97 92 39 bd
       -0.033370167 -0.13429174 -0.030779641 -0.045305815
000160 81 a9 cf 3c ba a9 0c be 60 7a 9d bd e5 e9 12 ba
       0.02534938 -0.1373662 -0.07689357 -0.0005604311
000170 f5 3f ee bd 22 41 00 be df ee 41 bd 4f c4 09 be
       -0.116332926 -0.12524846 -0.047346946 -0.13453792
000180 81 a6 7e bd 9c 23 e3 bc 64 65 11 be 33 9f 0f bd
       -0.06217051 -0.02772694 -0.14198834 -0.035063934
000190 86 fc 2b be 4e c9 ae bc 6c 63 79 bd db 74 9f bd
       -0.16795549 -0.021336224 -0.06088583 -0.0778596
0001a0 db 44 0f be 5e 70 d1 bd 7b 2c 10 bd d1 0e 7f bd
       -0.1399111 -0.102265105 -0.03519867 -0.06226999
0001b0 0c 72 c0 bd 4a f3 05 be a9 e4 a3 bd b0 ce a8 bd
       -0.09396753 -0.13081089 -0.08002598 -0.082425475
0001c0 ba ad 23 bd 5e 98 e1 bd c8 cc 1c be 29 e6 b7 bd
       -0.0399606 -0.1101539 -0.15312493 -0.089794464
0001d0 56 0e a6 bc 61 c6 f5 bd b6 21 e3 bd 37 67 00 be
       -0.020270508 -0.120007284 -0.11090414 -0.12539373
0001e0 41 61 83 bd 5a 87 1a bd 7d 51 12 be 13 2e 1d be
       -0.06415034 -0.037726738 -0.14288898 -0.15349607
0001f0 d4 f1 4f bd 23 fb c4 bd 12 0e b0 bc 9b a1 0a 3d
       -0.050767735 -0.09618213 -0.021491084 0.033845525
000200 02 60 d6 bc de cf dc bd 11 82 96 bd 54 3f e1 bc
       -0.026168827 -0.10781835 -0.07349027 -0.027496018
000210 59 1f d4 bd 13 e3 08 be bd cd 36 bc 88 90 c2 bd
       -0.103575416 -0.13367872 -0.01115745 -0.095002234
000220 ef 3d 8a bd 32 b0 18 bd af de 2a be 06 2b dc bd
       -0.06750094 -0.037277408 -0.1668651 -0.107503936
000230 15 5a 27 be 85 78 e1 bd d0 95 99 bd fd c3 a5 bd
       -0.16342957 -0.110093154 -0.074992776 -0.080940224
000240 42 10 ee bd 1d 83 1e bd da ad 00 be 0d 3e 56 bd
       -0.11624195 -0.038699258 -0.12566319 -0.05230527
000250 36 12 89 bd fa bb 7b bd 4c b3 1d be ee 80 17 be
       -0.066929266 -0.061458565 -0.15400428 -0.14795277
000260 41 eb c9 bd 87 ca 0e bc b7 ac bb bd 8c ee d3 bc
       -0.09859324 -0.0087152785 -0.09163802 -0.025870584
000270 fd fc af bd da 21 f5 bc 3a 95 96 bd 07 8f 09 be
       -0.085931756 -0.029923368 -0.073526815 -0.13433467
000280 28 a5 91 bd 26 08 18 be 3e b9 97 bd 63 ae 1c be
       -0.07111579 -0.14846858 -0.07408379 -0.15300898
000290 d3 5a ef bd 33 26 a4 bf df e4 67 3f 47 bd 10 3f
       -0.11687245 -1.2824157 0.90583605 0.56538814
0002a0 48 86 b9 3e ec b9 34 bf 16 94 92 be 2e 04 b8 be
       0.3623526 -0.70596194 -0.28628606 -0.3594069
0002b0 f0 26 08 bf cf 73 c4 3e 25 bb 3c be 48 56 26 3e
       -0.53184414 0.38369605 -0.18430765 0.16243851
0002c0 6f 97 25 3e a3 08 ed be c8 39 4d be 52 aa f4 3e
       0.16171049 -0.46295652 -0.20041573 0.47786194
0002d0 9d e4 af bd ce 4b 63 3e 0b 0c e7 3e 4a 46 f3 be
       -0.085885264 0.22196886 0.45126376 -0.47514564
0002e0 a5 ad e0 3e c2 a5 bf bc 57 eb e7 be a6 b9 87 3f
       0.4388248 -0.02339447 -0.45296738 1.060353
0002f0 5d 01 38 3f c1 fa 86 3d 58 8b 81 bd d9 8a 5a bf
       0.7187708 0.06590796 -0.06325406 -0.85368115
000300 c5 48 90 3e 2a 2f 58 bf 3f 3f 09 bf eb 19 b0 3d
       0.2818052 -0.84446967 -0.5361213 0.085986935
000310 45 d9 22 3f 08 73 a8 bd f0 89 13 3f f8 a0 48 be
       0.63612777 -0.082250655 0.5763235 -0.19592655
000320 9a ad 3f 3f d0 a2 b6 bd 34 ab 59 3e be aa 99 3c
       0.7487427 -0.08917773 0.21256715 0.018758174
000330 e3 11 15 3f 86 52 62 3f 9c 08 b4 be 69 70 e9 3e
       0.5823042 0.8840717 -0.35162818 0.45593575
000340 8c 17 c0 be ef cf 50 be 9b b8 aa be a6 23 6a be
       -0.37517965 -0.2039182 -0.33343968 -0.22865161
000350 f7 46 a8 be 33 85 79 3e d6 65 8d 3e 9c 6e d4 3e
       -0.32866642 0.24367218 0.27616757 0.41490638
000360 51 6f 22 3f 0b eb 70 be 62 c6 5b 3e 9d d9 40 be
       0.63451105 -0.23527162 0.21462396 -0.18833013
000370 2c ba fa be 9c e3 22 3d 4f 40 06 bf 71 64 e5 bf
       -0.48970163 0.039767846 -0.5244188 -1.7921277
000380 ee b3 10 3d 81 3f 13 be 05 9e 54 bf 85 f6 1f 3e
       0.035327844 -0.14379694 -0.8305362 0.15621383
000390 2d 7a 2c 3f 4a 7c bb be 74 0e 3e 3f 13 c5 54 3e
       0.67373925 -0.36618263 0.74240804 0.20778303
0003a0 f2 98 73 be 4f 87 84 bf 9f ad 49 be c1 45 f5 be
       -0.23788813 -1.0353793 -0.19695137 -0.4790478
0003b0 48 b7 30 3f 5c d0 1b be 20 ac 23 be 6e a4 b3 3e
       0.69029665 -0.15216202 -0.15983629 0.35086387
0003c0 30 7a aa 3e 06 f3 29 bf c2 58 b7 bd 39 ee 70 3d
       0.33296347 -0.6638645 -0.08952476 0.058820937
0003d0 bd 4e 7d bf 8e ae 0b bf da 56 8b be df e5 03 bf
       -0.9894827 -0.54563224 -0.272147 -0.5152263
0003e0 d1 2c 68 bf 8f 3d 3d 3d c8 1e 45 be bd d1 79 3e
       -0.90693384 0.046201285 -0.19250023 0.24396415
0003f0 59 84 1f 3f 16 a7 e9 3d 23 b9 43 3f 89 57 48 bf
       0.6231132 0.11408822 0.7645437 -0.7825857

output_layer.bias f4 [104]
000000 17 07 e1 bd ac 57 70 be 15 be 9d be 89 9d a6 be
       -0.109876804 -0.23470944 -0.30809084 -0.32542065
000010 48 31 a2 be 35 63 c4 be 8f 44 bf be ec 89 cb be
       -0.31678224 -0.3835694 -0.37356994 -0.39753664
000020 04 bc 15 bf 33 e6 c4 be e5 b0 10 bf 9a 7b 21 bf
       -0.58490014 -0.38456878 -0.5651992 -0.63079226
000030 d7 12 00 bf 74 95 e3 be 6a 25 16 bf ea c6 9f bd
       -0.5002875 -0.4444996 -0.5865084 -0.07801612
000040 40 f7 34 be 27 41 58 be 6c fe 0f 3e 33 09 a2 bd
       -0.17672443 -0.21118604 0.14061898 -0.07911911
000050 9b 7c 8f be 08 4f ec 3c e9 ae ba bd 2a 8c bd bb
       -0.28024754 0.028846279 -0.09115393 -0.005784531
000060 5c 68 37 be e0 b4 a6 bd ec 09 a8 bd 5b 6d e1 bd
       -0.17910904 -0.08139968 -0.082050174 -0.11007186
000070 0a 91 c9 be b5 66 53 3d 17 6f d2 be 9d e4 3b be
       -0.3936847 0.05161162 -0.4110038 -0.18348928
000080 b8 68 58 be 32 ad 30 be ee d7 af be f8 8d e4 be
       -0.21133697 -0.17253569 -0.3434443 -0.44639564
000090 ed 4f c6 be 0c 4b 85 be 27 71 9b be b0 27 26 bf
       -0.38732854 -0.2603382 -0.30359766 -0.6490431
0000a0 c0 b4 64 be 87 f1 97 be 0f cc 88 be cc 39 b1 be
       -0.22334576 -0.29676458 -0.26718184 -0.34614408
0000b0 63 f9 65 be ca f9 b8 bc 08 11 80 be d3 5d 41 be
       -0.22458415 -0.022580046 -0.25012994 -0.18883447
0000c0 97 0e fd 3d f7 99 58 be 66 37 bd bd 99 11 84 bd
       0.123562984 -0.21152483 -0.09239082 -0.06448669
0000d0 9d d9 38 be 46 ac 53 be 70 0a 36 3e 13 66 7b bd
       -0.18051763 -0.20671186 0.17777419 -0.061376642
0000e0 a6 92 df bd 68 4f 46 bb 34 27 47 bc d5 81 79 3d
       -0.10916643 -0.0030259732 -0.012155343 0.060914833
0000f0 c1 fc 1d be 5b 72 97 be d0 d5 0b be a8 57 8a be
       -0.15428449 -0.29579434 -0.13655782 -0.2702
000100 af e3 5e be 3a c7 82 be cc a9 97 be b9 da 8c be
       -0.21766542 -0.25542623 -0.29621732 -0.27510622
000110 ea f3 74 be 7c 9c 00 bf b8 1f d2 bd c6 14 e0 be
       -0.23921171 -0.50238776 -0.10259956 -0.4376585
000120 4b 5d 29 be fe 49 bc be 33 8f 66 be e3 eb 01 be
       -0.16539495 -0.36775202 -0.22515564 -0.1268764
000130 d2 a1 f6 b8 2d 9d d1 bd 8d 8f 2b bd 11 40 d8 3d
       -0.000117603355 -0.10235057 -0.041884948 0.10559095
000140 ca 16 85 bc 5e 8a bb bd 37 b2 11 be 3e af 0c bd
       -0.016246218 -0.09157251 -0.1422814 -0.03434681
000150 75 ee b2 bd 3b 43 30 bd 97 d8 c9 bd 4e 28 ad be
       -0.08736888 -0.043032866 -0.09855764 -0.33819813
000160 0b 5a f6 bc 50 ac 9d bd f6 bf 98 bd 64 5f 93 3e
       -0.030072233 -0.076988816 -0.07458489 0.28783715
000170 46 49 5d 3b 92 3a 6b bd 3d 19 cd bc 6b 49 58 bd
       0.0033765598 -0.057428904 -0.025036449 -0.05280439
000180 0b 36 e1 3d 01 9d 9c 3d 38 15 f9 bd 18 ae 85 bd
       0.10996636 0.076471336 -0.1216225 -0.065273464
000190 d8 9d b7 3e a9 89 17 be db 50 94 3e 40 9e 92 3d
       0.35862613 -0.14798607 0.28967938 0.0715909
