models/victim.pth (torch, 139935 bytes, 4 tensors)

e1.weight f4 [165, 104]
0	0x3da52a08	0.080646574
1	0xbe0749dd	-0.1321177
2	0x3f42b139	0.7605167
3	0x3eb2c6e4	0.34917367
4	0x3ee127dc	0.43975723
5	0xbd307494	-0.043079928
6	0x3f852ff7	1.0405263
7	0xbe70d778	-0.23519695
8	0xbe63ba52	-0.22239044
9	0x3ef09d0e	0.46994823
10	0x3d9f0b28	0.077658
11	0x3e8815d8	0.26579165
12	0x3ccc0f75	0.024909714
13	0xbc37d562	-0.011220308
14	0x3e423abd	0.1896772
15	0xbc5e33ae	-0.013562126
16	0xbcc7530a	-0.024331588
17	0x3d67452e	0.05646246
18	0xbcf7db64	-0.03025598
19	0xbd6befc0	-0.05760169
20	0x3aafb91e	0.001340661
21	0x3d290305	0.041262645
22	0x3d6fe4f9	0.058567975
23	0xbcabd6dc	-0.020976476
24	0xbd69760c	-0.056997344
25	0x3d5392b1	0.051653568
26	0x3da4cdb7	0.080470495
27	0x3e483654	0.19551975
28	0xbd94a8e5	-0.072587766
29	0x3da7adc4	0.0818744
30	0xbc4bbde4	-0.01243541
31	0x3e94847f	0.29007336
32	0x3f09a751	0.5377093
33	0x3ed8fdf3	0.42381248
34	0xbed29bde	-0.41134542
35	0x3f16516c	0.5871799
36	0xbcdba930	-0.026814073
37	0xbdaafeb8	-0.08349365
38	0x3e0b3276	0.13593468
39	0x3f081e30	0.5317106
40	0x3d8bd342	0.068274036
41	0x3dde3b65	0.10851172
42	0xbf05277f	-0.5201339
43	0xba0253d9	-0.0004971601
44	0x3ec6ac1c	0.38803184
45	0x3cd15412	0.025552783
46	0x3e8a46bb	0.27007088
47	0x3d5af609	0.053457294
48	0xbcc33706	-0.023829948
49	0x3d00fa9d	0.031489003
50	0x3e1b1d58	0.15147913
51	0x3e4c68ad	0.19961806
52	0x3daad000	0.08340454
53	0x3e4de773	0.20107822
54	0x3d04f5a2	0.032460816
55	0xbccc00cc	-0.024902724
56	0x3df81038	0.121124685
57	0xbd0331db	-0.032029968
58	0x3d57b121	0.052659158
59	0x3d780252	0.060549088
60	0xbf1da024	-0.6157248
61	0x3e8c4651	0.27397397
62	0x3e88ef98	0.26745296
63	0x3ec3d8d6	0.3825137
64	0x3e21dcb3	0.15806846
65	0xbeb638df	-0.35590264
66	0x3cee0bec	0.02905842
67	0xbe8fb8a9	-0.28070572
68	0x3dc73294	0.09726444
69	0x3eb4d46d	0.35318318
70	0x3edd3a61	0.43208602
71	0x3f09fd67	0.53902286
72	0x3ece8acd	0.40340272
73	0x3dbc0b26	0.09181814
74	0x3bc8ef00	0.0061320066
75	0x3dd8b0e0	0.10580611
76	0xbd9074ff	-0.07053565
77	0xbcd93115	-0.026512662
78	0x3e2e21d5	0.17005093
79	0x3e4aaee9	0.19793285
80	0xbda1882c	-0.07887301
81	0xbd51c2f7	-0.051211324
82	0xbd6a2380	-0.05716276
83	0xbc6a2b29	-0.014292517
84	0x3da1cd96	0.079005405
85	0x3d8f737b	0.07004448
86	0x3d25f3ce	0.040515713
87	0xbd770e3a	-0.060316302
88	0xbdbe0795	-0.0927879
89	0x3dbc0cdb	0.091821395
90	0x3dbeac6e	0.09310232
91	0x3d50e8f2	0.051003404
92	0xbcd90007	-0.02648927
93	0x3d92f441	0.07175494
94	0x3e2db673	0.1696413
95	0x3d4e812d	0.05041616
96	0x3eceb0f4	0.4036938
97	0xbca1f76a	-0.019771297
98	0x3bf254ed	0.007395378
99	0x3d2679d0	0.040643513
100	0xbd5c44db	-0.053776603
101	0xbf054a6e	-0.52066696
102	0x3d7f6a6b	0.062357347
103	0xbdbc15ee	-0.0918387
104	0x3d49dd40	0.049283266
105	0x3ec82814	0.39093077
106	0x3f3a0d1e	0.72676265
107	0x3e46450a	0.19362274
108	0x3efe56c2	0.49675566
109	0xbe3b64c5	-0.1830016
110	0xbf400ce8	-0.75019693
111	0x3e5d3d8c	0.2160551
112	0xbeaf920a	-0.34291106
113	0x3f513fc2	0.8173791
114	0x3e94726a	0.2899354
115	0x3d3d1c65	0.046169657
116	0x3e0ceaf6	0.13761505
117	0xbe847d6c	-0.2587694
118	0xbdaf914b	-0.08572634
119	0x3d890671	0.06690682
120	0xbd27da9a	-0.04097996
121	0xbdb137b0	-0.086532
122	0xbd9e068e	-0.07716094
123	0xbc060fc9	-0.008182474
124	0x3aca353f	0.0015427246
125	0xbd989071	-0.07449425
126	0x3da4d66d	0.08048711
127	0x3d6ac520	0.0573169
128	0x3b305603	0.0026906736
129	0xbcfb4c97	-0.03067617
130	0x3ce1eb8e	0.027578142
131	0x3df2df28	0.1185897
132	0x3db17eb6	0.08666746
133	0xbcd55273	-0.026040291
134	0x3c237d92	0.009978669
135	0x3bd9a2a5	0.006641703
136	0xbe730168	-0.23731005
137	0x3f22a924	0.6353934
138	0xbe34db69	-0.17661823
139	0x3eee8258	0.4658382
140	0x3f333939	0.7000919
141	0x3e8500df	0.25977227
142	0xbdd35fc6	-0.10321002
143	0xbc301423	-0.0107469885
144	0x3f16d643	0.5892069
145	0x3eab35a1	0.33439353
146	0x3e0d9da3	0.13829665
147	0x3df1e11e	0.11810516
148	0x3e64f0ab	0.22357433
149	0x3d85a1cb	0.06525
150	0x3e197d25	0.14989145
151	0x3d612da7	0.054975178
152	0xbd7b575d	-0.061362613
153	0x3c96e524	0.01841981
154	0x3de50ed5	0.111844696
155	0x3d83a84c	0.064285845
156	0xbd6e9957	-0.058251705
157	0x3e06380d	0.13107319
158	0xbd986760	-0.07441592
159	0x3cb18c19	0.02167325
160	0x3d0ee1d7	0.034883346
161	0x3d6c2bcc	0.057658955
162	0x3d8ef2e1	0.06979919
163	0xbdb65f96	-0.0890495
164	0xbe48fa33	-0.19626693
165	0x3edc9df0	0.43089247
166	0x3e8b65f7	0.2722623
167	0xbef7eff2	-0.4842525
168	0x3eecac11	0.46225026
169	0x3ea10fb1	0.31457284
170	0x3f03bb2a	0.51457465
171	0xbdb3de6b	-0.08782657
172	0x3e7e1bf5	0.24815352
173	0x3daa78fc	0.08323857
174	0x3ea8f92a	0.33002597
175	0x3ecc8909	0.399483
176	0xbefa7646	-0.4891836
177	0x3ee622b7	0.4494836
178	0x3e682c3a	0.22673121
179	0x3d96bd43	0.073603176
180	0x3cc63bb3	0.024198389
181	0xbd9db45b	-0.07700416
182	0x3d46caa5	0.0485331
183	0xbce37008	-0.027763382
184	0x3d9f6639	0.07783169
185	0xbd1a357e	-0.03764867
186	0xbd81f19c	-0.063449115
187	0xbd285f75	-0.04110666
188	0x3d0e9e4e	0.03481894
189	0x3d7bfc30	0.0615198
190	0x3d9dca06	0.077045485
191	0x3d3b3295	0.045702536
192	0xbca602a3	-0.02026493
193	0x3db4c24b	0.08826121
194	0xbd7fc63a	-0.062444903
195	0xbd977f58	-0.07397336
196	0x3d93aea3	0.07211044
197	0x3dbf1bc5	0.093314685
198	0xbe231bb3	-0.15928535
199	0xbd2f789e	-0.04283964
200	0x3ef68a2f	0.481523
201	0xbdaca328	-0.08429557
202	0xbd0475d7	-0.032338943
203	0xbcb667a5	-0.022266218
204	0xbd425e1c	-0.04745303
205	0xbde28a8c	-0.11061582
206	0xbd85611a	-0.06512661
207	0x3c98ab78	0.01863645
208	0x3d50af88	0.05094865
209	0x3f15cf52	0.5851947
210	0x3efe17fe	0.4962768
211	0x3e622ef7	0.22088228
212	0xbe4e65a1	-0.20155956
213	0x3f329582	0.6975938
214	0x3c0f482e	0.008745236
215	0x3e8ab07b	0.2708777
216	0x3eadea54	0.3396784
217	0x3ec0605c	0.37573516
218	0x3c58f56e	0.013242109
219	0x3c83969c	0.016063027
220	0xbe1125f1	-0.1417463
221	0x3e75e98a	0.2401487
222	0xbed14d3e	-0.40879244
223	0xbdc7610e	-0.097353086
224	0xbc60ac34	-0.013712931
225	0x3d0eaa38	0.034830302
226	0xbca8d3e1	-0.020608844
227	0x3bf2157c	0.007387815
228	0x3c98b9f5	0.018643359
229	0xbca7bed1	-0.02047673
230	0xbdab0631	-0.0835079
231	0x3bea1830	0.0071439967
232	0xbc1dbbad	-0.009627265
233	0x3d91d2a5	0.071202554
234	0xbc5e6710	-0.013574377
235	0xbce0b74b	-0.02743115
236	0xbd62c79c	-0.055366144
237	0x3d37b5a7	0.04485097
238	0x3e3757cb	0.17904584
239	0x3e9b67ba	0.30352575
240	0xbebdce3d	-0.3707141
241	0xbcb44f01	-0.022010328
242	0x3e163d8f	0.1467192
243	0xbf1b58df	-0.6068248
244	0xbae0df84	-0.0017156457
245	0xbd325d51	-0.043546025
246	0x3eddce6c	0.4332155
247	0x3e97a01f	0.2961435
248	0xbec174c7	-0.37784407
249	0x3d7e428f	0.062075194
250	0xbdfc9659	-0.12333364
251	0xbdc37482	-0.095437065
252	0x3d8d8bbb	0.06911417
253	0xbc805724	-0.015666552
254	0x3ceba328	0.028764322
255	0xbaa40b86	-0.0012515641

e1.bias f4 [165]
0	0x3e7fe6e3	0.2499042
1	0x3d04aa66	0.032389067
2	0x3b91715a	0.0044385614
3	0x3e823732	0.25432736
4	0x3e6f5c25	0.23374994
5	0x3d71accf	0.059002694
6	0x3ea6303d	0.32458678
7	0x3e036059	0.12829722
8	0x3e187ccb	0.14891355
9	0x3d0a689a	0.033791162
10	0x3e5e1fc4	0.21691805
11	0xbd80ce18	-0.06289309
12	0x3e295b5a	0.16538754
13	0xbd01ed07	-0.031720188
14	0x3e140b55	0.14457448
15	0xbe431d91	-0.19054247
16	0x3e90b731	0.28264764
17	0xbc9dbb52	-0.01925436
18	0x3d9de6c6	0.07710032
19	0xbd601d3a	-0.054715373
20	0x3d75b039	0.059982512
21	0x3e8d132a	0.27553684
22	0x3da5ac8a	0.0808955
23	0x3e32e340	0.17469501
24	0x3e48cb15	0.1960872
25	0x3ec90a0d	0.3926548
26	0x3e2badea	0.16765562
27	0x3eabaa10	0.33528185
28	0x3c08cda3	0.008349809
29	0x3d8737dd	0.06602452
30	0x3cdc71e7	0.026909782
31	0x3dd27d11	0.10277761
32	0x3f08e849	0.5347944
33	0x3ea0291f	0.31281373
34	0x3e0d440b	0.13795488
35	0x3ea12fea	0.31481868
36	0x3e84f62f	0.25969073
37	0x3ee634a2	0.4496203
38	0x3debb81f	0.11509728
39	0x3ea3eb18	0.320153
40	0x3d5058a0	0.05086577
41	0x3e817424	0.2528392
42	0x3e123fc6	0.1428214
43	0x3d93585c	0.071945876
44	0x3e9633fb	0.29336533
45	0x3d844a23	0.06459453
46	0x3e97ec35	0.296724
47	0x3c974b3d	0.018468494
48	0x3e04a253	0.12952547
49	0x3dbee4b8	0.093209684
50	0x3dd76b3d	0.10518501
51	0x3de86b00	0.11348534
52	0xbd54b02a	-0.051925816
53	0x3e5e8a1b	0.2173237
54	0x3ea4a0d1	0.32153943
55	0x3e5ef221	0.21772052
56	0x3e91e60b	0.2849582
57	0x3e840dca	0.2579177
58	0x3e8ad659	0.2711666
59	0x3e2ccabc	0.16874212
60	0x3ea728bf	0.32648274
61	0xbd391bae	-0.045192413
62	0x3e24e48a	0.16102806
63	0x3ea7edc3	0.32798585
64	0x3dd20d31	0.10256422
65	0x3dce8136	0.10083239
66	0xbd4ca7c4	-0.04996468
67	0x3dadebc6	0.08492236
68	0x3b825255	0.0039771
69	0x3eb8bc31	0.3608108
70	0x3be982de	0.0071261963
71	0x3e652738	0.22378242
72	0x3eaca0a1	0.337163
73	0x3ed3d9cd	0.41377106
74	0x3e4cc52f	0.19997095
75	0x3d238869	0.039925013
76	0x3e28898d	0.16458721
77	0xbc01f44f	-0.007931783
78	0x3ea4c515	0.32181612
79	0x3e19fc1d	0.1503758
80	0x3c141432	0.009038018
81	0xbd004e53	-0.031324696
82	0xbd4fe27d	-0.050753105
83	0x3dfcb20b	0.123386465
84	0x3da98c62	0.08278729
85	0x3e2479ff	0.16062163
86	0x3d6270e7	0.055283453
87	0x3e9d9b9b	0.3078278
88	0x3e96f7be	0.29485887
89	0x3e0e0d65	0.13872297
90	0xbd8ab0ca	-0.06772001
91	0x3ec7d314	0.39028227
92	0x3e743763	0.23849253
93	0x3e730fce	0.23736498
94	0xbd99b87e	-0.07505892
95	0x3e14781f	0.14498948
96	0x3e1b4e68	0.15166628
97	0x3ed4cc80	0.4156227
98	0x3e0a704b	0.13519399
99	0x3e104400	0.1408844
100	0x3e28a0d8	0.16467607
101	0x3e1cbb4c	0.15305823
102	0x3e10013d	0.14062972
103	0x3e92b601	0.28654483
104	0x3e0b1c11	0.13584925
105	0xbcffd04a	-0.03122725
106	0x3e591de8	0.21202815
107	0x3e3edd84	0.18639189
108	0x3cda71f9	0.026665675
109	0x3e868f21	0.26281074
110	0x3d223998	0.039605707
111	0x3e33a2fb	0.17542641
112	0x3e17eee1	0.14837219
113	0x3d47cf9d	0.04878198
114	0xbceae719	-0.02867465
115	0x3bbb3def	0.00571417
116	0x3d5ed593	0.0544029
117	0x3ea150ff	0.31507108
118	0x3d21ef9f	0.03953516
119	0x3e597e65	0.21239622
120	0x3db1721b	0.08664342
121	0x3e851a55	0.25996652
122	0x3e9b09e6	0.3028099
123	0x3e1f970e	0.15584967
124	0x3c540a51	0.012941913
125	0x3e5298a1	0.20566036
126	0x3e11d21d	0.14240308
127	0xbca87430	-0.020563215
128	0x3e48c2e6	0.19605598
129	0x3e071c5a	0.13194409
130	0x3ead14a8	0.33804822
131	0x3ed41c22	0.41427714
132	0x3d8b7229	0.06808884
133	0x3e5c843e	0.21534821
134	0xbd37d00d	-0.044876147
135	0x3ed03293	0.40663585
136	0x3dfba3fd	0.12287138
137	0x3e501aba	0.20322695
138	0x3e051037	0.12994467
139	0x3e169346	0.14704618
140	0x3d266761	0.040625934
141	0x3b85cdf6	0.0040833903
142	0x3e085403	0.13313298
143	0x3c73857d	0.014863369
144	0x3e43d84f	0.19125484
145	0x3b1e7bcd	0.0024182678
146	0x3db00bc2	0.085959926
147	0x3e8a8e76	0.27061814
148	0x3e9bd242	0.3043385
149	0x3d69f7a5	0.057120938
150	0x3cb85691	0.022502216
151	0x3e92b2cc	0.28652036
152	0x3e8d3946	0.2758276
153	0xbd3a97a8	-0.045554787
154	0x3e859052	0.2608667
155	0x3d14c9e1	0.03632534
156	0x3e3a606c	0.18200845
157	0xbc1cf43e	-0.009579716
158	0x3e764fff	0.24053954
159	0x3e21935d	0.15778871
160	0x3e3e4490	0.18580842
161	0x3ecac5e8	0.39604115
162	0x3ddaf8de	0.10691999
163	0x3d80047b	0.062508546
164	0x3dd1a050	0.10235655

output_layer.weight f4 [104, 165]
0	0x3d01e0fb	0.0317087
1	0xbd8f4cc7	-0.06997066
2	0xbe273c02	-0.16331485
3	0xbda85b8c	-0.08220586
4	0xbcebff72	-0.02880833
5	0xbd1da2b5	-0.038485248
6	0xbd553841	-0.0520556
7	0xbd47c2bb	-0.048769694
8	0x3c03b3e3	0.008038494
9	0xbcf06009	-0.029342668
10	0xbde0e5e1	-0.10981346
11	0x3d097013	0.033554148
12	0xbda303ac	-0.07959685
13	0xbc034461	-0.008011908
14	0xbd9fdbce	-0.07805596
15	0xbe0800e2	-0.13281587
16	0xbe1d8b86	-0.15385255
17	0xbcefff50	-0.029296547
18	0xbe234fd3	-0.1594842
19	0xbd24ba35	-0.040216643
20	0xbe074215	-0.13208802
21	0x3d47c75a	0.0487741
22	0xbe14f213	-0.14545469
23	0xbdaf63a8	-0.0856393
24	0xbcebc398	-0.02877979
25	0xbe109427	-0.14119016
26	0xbd0514cd	-0.03249054
27	0xbdf897e6	-0.12138347
28	0xbe0c0c5f	-0.13676594
29	0xbdfd79f9	-0.1237678
30	0xbe0eb10d	-0.13934727
31	0xbd43dc23	-0.04781736
32	0xbb398e07	-0.0028313415
33	0xbe0c7f30	-0.13720393
34	0xbd73de3f	-0.059538122
35	0xbdce1e7e	-0.1006441
36	0xbe16aa98	-0.14713514
37	0xbdfb6e07	-0.122768454
38	0xbd946de2	-0.07247521
39	0xbce3052b	-0.027712425
40	0xbe011c6f	-0.12608503
41	0xbd99c1ec	-0.07507691
42	0xbde44e7d	-0.11147783
43	0xbd9c506c	-0.07632527
44	0xbdf25f42	-0.11834575
45	0xbd259669	-0.040426645
46	0xbdccad65	-0.0999401
47	0xbe0e244a	-0.1388103
48	0xbe260182	-0.16211513
49	0xbcdc1c76	-0.02686904
50	0xbdd14ec8	-0.102201045
51	0xbcdf1f18	-0.027236506
52	0x3d35422c	0.04425256
53	0xbe050099	-0.12988509
54	0xbd83b26f	-0.06430518
55	0x3d08087b	0.033211213
56	0xbdcedb7d	-0.10100458
57	0xbcfcd979	-0.030865418
58	0xbca5085f	-0.020145593
59	0xbe19fd63	-0.15038066
60	0xbd25342f	-0.04033297
61	0xbe035745	-0.1282626
62	0xbd923ccc	-0.07140502
63	0xbc3be05c	-0.011467066
64	0xbcc21f6b	-0.023696622
65	0xbd176d6d	-0.03696959
66	0xbdac8c5a	-0.084252074
67	0xbdfca86f	-0.12336814
68	0xbd3b77b0	-0.04576844
69	0x3d3116fc	0.04323481
70	0xbd592bf1	-0.05302042
71	0x3b5dfe68	0.0033873562
72	0xbe2a23c3	-0.16615205
73	0xbd31c615	-0.043401796
74	0xbdfcb9ee	-0.12340151
75	0xbe1ec2aa	-0.15503946
76	0xbd7f63a2	-0.062350877
77	0xbd3cc556	-0.04608663
78	0xbd09cf8a	-0.03364519
79	0x3d44af0d	0.048018504
80	0xbdd14b68	-0.10219461
81	0xbd058191	-0.032594267
82	0xbdcad1ff	-0.09903335
83	0xbdaddb72	-0.084891215
84	0xbd915f26	-0.07098226
85	0xbc3ce87c	-0.011530038
86	0xbe091ba6	-0.13389453
87	0xbd965806	-0.07341008
88	0xbd9d1204	-0.07669452
89	0xbc9b0e15	-0.018927613
90	0xbe081d03	-0.13292317
91	0xbd6c9921	-0.057763223
92	0xbdb960b1	-0.090516455
93	0xbdd3719c	-0.10324404
94	0xbc902911	-0.017597707
95	0xbda31504	-0.07962993
96	0xbe0249ac	-0.12723416
97	0xbd283aec	-0.041071817
98	0xbdfa5b08	-0.12224394
99	0xbe1c41f1	-0.1525953
100	0x3a5c12d7	0.00083951413
101	0xbce55109	-0.027992742
102	0xbd5c3793	-0.053763937
103	0xbdc194b9	-0.09452195
104	0xbe1698d1	-0.14706732
105	0xbddabc04	-0.106803924
106	0xbc7293df	-0.014805763
107	0xbdd68cbc	-0.10476062
108	0xbdb5b8ce	-0.08873139
109	0xbd7089f2	-0.058725305
110	0xbe17f4cd	-0.14839478
111	0xbdd16480	-0.10224247
112	0xbdeca380	-0.11554623
113	0xbcf8f86f	-0.0303919
114	0xbdbc6666	-0.091992185
115	0xbcb1ab8a	-0.021688242
116	0xbdca65a4	-0.09882668
117	0xbdf39461	-0.118935354
118	0xbdf8bcdb	-0.12145396
119	0xbdb1360e	-0.08652888
120	0xbe1129de	-0.14176127
121	0xbd9c0462	-0.076180235
122	0xbdc400f8	-0.09570497
123	0xbe1e5e73	-0.15465717
124	0xbd41b216	-0.047288977
125	0xbdff91a3	-0.1247895
126	0xbc4756ef	-0.012166723
127	0xbd01b2c6	-0.031664632
128	0xbde17dfb	-0.11010357
129	0xbdd242eb	-0.1026667
130	0xbd6655b2	-0.05623407
131	0xbcd09c30	-0.025465101
132	0xbe0f50a6	-0.13995609
133	0xbcaa6d2c	-0.02080401
134	0xbe06b9ad	-0.13156767
135	0xbde93e4c	-0.11388835
136	0xbd6b4a06	-0.05744364
137	0xbe009a09	-0.1255876
138	0x3c3e9248	0.011631556
139	0xbcd40851	-0.025882872
140	0xbdcbf165	-0.09958152
141	0x3ca3448c	0.019930147
142	0xbdf81ef8	-0.12115282
143	0xbcf9d535	-0.030497173
144	0xbd3c8f1c	-0.046034917
145	0xbe1f65fd	-0.15566249
146	0xbc788d93	-0.015170473
147	0xbe1a1021	-0.15045215
148	0xbdb33202	-0.087497726
149	0xbda99b4e	-0.08281575
150	0xbcd5f329	-0.026116924
151	0xbc8c6ae3	-0.017140811
152	0xbe05734a	-0.1303226
153	0xbc523ebe	-0.012832342
154	0xbdecbca8	-0.11559421
155	0xbe0e33c9	-0.13886942
156	0xbe1789a8	-0.14798605
157	0x3d889597	0.06669157
158	0xbde9d6bf	-0.11417913
159	0xbc402467	-0.011727429
160	0xbe092946	-0.13394651
161	0xbd69f8ea	-0.05712215
162	0xbdabd59f	-0.08390354
163	0xbe00f02b	-0.12591617
164	0xbe1e24ae	-0.1544368
165	0xbe493ed4	-0.19652873
166	0x3d18dae7	0.037318137
167	0x3e5328a8	0.20620978
168	0x3e2dfd79	0.16991223
169	0xbeb7ab7d	-0.35873023
170	0xbe1e97e9	-0.15487637
171	0xbd996978	-0.0749082
172	0x3d3e9f72	0.046538778
173	0xbd071b2b	-0.032984894
174	0x3e7874a1	0.2426324
175	0x3e91456b	0.28373274
176	0x3e25d651	0.16195036
177	0x3ed0fef8	0.40819526
178	0xbe9fae1b	-0.3118752
179	0x3db79334	0.08963624
180	0x3de3fb6e	0.11131941
181	0xbf024a48	-0.50894594
182	0x3ee1703c	0.4403094
183	0xbe1a498f	-0.15067123
184	0xbdb843ce	-0.08997308
185	0x3c7e4e3a	0.01552158
186	0x3ed9a9e1	0.4251242
187	0x3f07c54f	0.53035444
188	0xbc64256a	-0.013924936
189	0x3df32b6b	0.11873516
190	0x3e7af6a2	0.24508145
191	0x3a5b96f2	0.00083766796
192	0xbede0e17	-0.43370125
193	0xbcd32eba	-0.025779117
194	0xbf1e7398	-0.6189513
195	0x3f068e83	0.52561206
196	0x3e5d66bd	0.21621223
197	0xbe49c4b9	-0.1970395
198	0xbf10bce6	-0.56538236
199	0x3e3a128a	0.18171135
200	0x3d971a88	0.07378107
201	0xbe06a91c	-0.13150448
202	0xbef919d4	-0.48652518
203	0xbd8f10c5	-0.069856204
204	0xbe536b6f	-0.20646451
205	0xbe8f6213	-0.28004512
206	0xbefeb1e3	-0.49745092
207	0xbd333b54	-0.04375775
208	0x3f01a7c3	0.5064661
209	0x3d139447	0.03603008
210	0x3dcedb2f	0.101004
211	0x3e21461d	0.15749402
212	0xbce6aa17	-0.028157277
213	0xbbff416a	-0.0077897804
214	0x3f00cf43	0.50316256
215	0xbde1990e	-0.11015521
216	0xbe58712e	-0.21136925
217	0x3c11c9e7	0.008898235
218	0xbe8dbfdd	-0.27685443
219	0xbe70f317	-0.23530231
220	0xbe39bfde	-0.18139598
221	0xbe4419a6	-0.19150409
222	0xbea866c1	-0.32890895
223	0xbd99013e	-0.0747094
224	0xbc9f91bc	-0.019478671
225	0x3c81e6e7	0.015857173
226	0xbedb06e2	-0.4277869
227	0xbece4a50	-0.4029107
228	0xbeb6fb72	-0.35738713
229	0x3e2ef391	0.170851
230	0x3e9b1549	0.30289677
231	0x3e96bf1e	0.29442686
232	0x3e1329ca	0.1437141
233	0xbde94180	-0.11389446
234	0xbd9877f6	-0.07444756
235	0xbc8bf8ce	-0.017086413
236	0x3e2e9c3a	0.17051783
237	0xbd52384c	-0.05132322
238	0xbd062f2d	-0.032759834
239	0xbd0e526c	-0.034746572
240	0x3bb4e7c8	0.0055207945
241	0x3d682924	0.05667986
242	0x3eb7fb96	0.35934132
243	0xbeb64b6f	-0.35604426
244	0x3ec68aeb	0.3877786
245	0xbdabf5bb	-0.08396479
246	0x3d6f9d0a	0.058499373
247	0x3d9081d1	0.070560105
248	0x3e38cd01	0.18046953
249	0x3ea5620b	0.32301363
250	0xbc6e6725	-0.014550959
251	0x3f4f6191	0.8100825
252	0xbe83c6ca	-0.25737602
253	0xbe25edaa	-0.16203943
254	0x3e037183	0.1283627
255	0xbd928e4f	-0.071560495

output_layer.bias f4 [104]
0	0xbd9743e1	-0.07385994
1	0xbe2e5122	-0.17023137
2	0x3d0c44ff	0.034245487
3	0x3d706762	0.058692344
4	0xbe01088f	-0.12600921
5	0xbd9d4c04	-0.076805145
6	0xbdf15bc4	-0.11785081
7	0xbd622bce	-0.055217557
8	0xbcf00678	-0.02929996
9	0xbe05e4a1	-0.13075496
10	0xbe0d018c	-0.13770121
11	0xbe2045b4	-0.1565159
12	0xbd7a9d2e	-0.061185054
13	0xbd9448a1	-0.07240415
14	0xbea61a69	-0.32442024
15	0xbe1366dd	-0.14394708
16	0xbda27a10	-0.07933438
17	0xbd566c56	-0.05234941
18	0xbe07fd96	-0.13280329
19	0xbdbf07fa	-0.09327693
20	0xbd477a83	-0.04870082
21	0xbd1cdab4	-0.03829451
22	0xbd466362	-0.048434623
23	0xbd9954be	-0.074868664
24	0xbd1ab778	-0.037772626
25	0xbd91451d	-0.070932604
26	0xbd9847c1	-0.07435561
27	0x3c9c35cf	0.019068627
28	0xbdddc5b9	-0.10828728
29	0xbda9734d	-0.08273945
30	0xbe51dc07	-0.2049409
31	0xbe206ca1	-0.15666439
32	0xbdaae729	-0.083448716
33	0xbdf0f941	-0.117662914
34	0xbd749adc	-0.059717998
35	0xbe63876f	-0.22219633
36	0xbe09f232	-0.13471296
37	0xbd954ce9	-0.0729006
38	0xbe26123e	-0.16217896
39	0xbe7cda17	-0.2469257
40	0xbe315e32	-0.17321089
41	0xbe8042af	-0.25050876
42	0xbe56f50c	-0.20991915
43	0xbe43dc52	-0.19127014
44	0xbe2d2e74	-0.16912252
45	0xbddc3b73	-0.107535265
46	0x3dd4dee6	0.10394077
47	0xbcc14ecd	-0.023597145
48	0xbc96f5f3	-0.018427825
49	0xbdc0bbd2	-0.09410824
50	0xbd8e9e17	-0.06963747
51	0x3c2be212	0.010490911
52	0x3d847adf	0.06468748
53	0x3dbb29a8	0.09138805
54	0xbe0dcae6	-0.13846931
55	0xbd53f1fb	-0.051744442
56	0xbdd82883	-0.10554602
57	0xbdb8eb91	-0.09029306
58	0xbe3a669a	-0.18203202
59	0xbcd8d810	-0.026470214
60	0xbe455bb0	-0.19273257
61	0xbdae215d	-0.08502457
62	0xbd9dd6e0	-0.07707
63	0xbe5f11e8	-0.21784174
64	0xbe379d7c	-0.1793117
65	0xbead3fa2	-0.3383761
66	0xbea7f3cd	-0.32803193
67	0xbe68cb28	-0.22733748
68	0xbe109fc4	-0.14123446
69	0xbe696841	-0.22793676
70	0xbe4e14cd	-0.20125122
71	0xbe305f3d	-0.1722383
72	0xbe6c9ab4	-0.2310589
73	0xbda0627a	-0.07831283
74	0xbdac073c	-0.08399817
75	0xbd00d3dc	-0.031452045
76	0xbdb4c96c	-0.08827481
77	0xbcaf4660	-0.021395862
78	0x3d0aa280	0.03384638
79	0xbdae73be	-0.0851817
80	0xbd04b0b0	-0.032395065
81	0xbdca8d1b	-0.09890195
82	0x3a56a881	0.0008188561
83	0xbd2fbf4f	-0.042907055
84	0xbd634082	-0.05548144
85	0xbe0194ff	-0.12654494
86	0xbd2f271a	-0.0427619
87	0xbdf260b7	-0.11834853
88	0xbe1816b2	-0.14852408
89	0x3d1e8591	0.038701598
90	0xbe0ec5a6	-0.13942584
91	0xbdc5cc6d	-0.09658132
92	0xbcdab4f5	-0.026697615
93	0xbdfd9d87	-0.123835616
94	0xbd3c98e2	-0.046044238
95	0xbc8191d0	-0.0158166
96	0xbdd093e5	-0.10184459
97	0xbd3c791b	-0.046013933
98	0xbde2abb8	-0.11067909
99	0xbd65148e	-0.055927806
100	0xbdedfee2	-0.11620881
101	0xbbad6481	-0.005291522
102	0xbd3c05bb	-0.045903903
103	0xbe158c2b	-0.14604251
